{"format": "layers-model", "generatedBy": "keras v3.3.3", "convertedBy": "TensorFlow.js Converter v4.19.0", "modelTopology": {"keras_version": "3.3.3", "backend": "tensorflow", "model_config": {"class_name": "Sequential", "config": {"name": "sequential_1", "trainable": true, "dtype": "float32", "layers": [{"class_name": "InputLayer", "config": {"batch_shape": [null, 300, 300, 3], "dtype": "float32", "sparse": false, "name": "input_layer_3"}}, {"class_name": "Rescaling", "config": {"name": "rescaling_2", "trainable": true, "dtype": "float32", "scale": 0.00392156862745098, "offset": 0.0}}, {"class_name": "Functional", "config": {"name": "efficientnetv2-b3", "trainable": false, "layers": [{"class_name": "InputLayer", "config": {"batch_shape": [null, 300, 300, 3], "dtype": "float32", "sparse": false, "name": "input_layer_2"}, "name": "input_layer_2", "inbound_nodes": []}, {"class_name": "Conv2D", "config": {"name": "stem_conv", "trainable": false, "dtype": "float32", "filters": 40, "kernel_size": [3, 3], "strides": [2, 2], "padding": "same", "data_format": "channels_last", "dilation_rate": [1, 1], "groups": 1, "activation": "linear", "use_bias": false, "kernel_initializer": {"module": "keras.initializers", "class_name": "VarianceScaling", "config": {"scale": 2.0, "mode": "fan_out", "distribution": "truncated_normal", "seed": null}, "registered_name": null}, "bias_initializer": {"module": "keras.initializers", "class_name": "Zeros", "config": {}, "registered_name": null}, "kernel_regularizer": null, "bias_regularizer": null, "activity_regularizer": null, "kernel_constraint": null, "bias_constraint": null}, "name": "stem_conv", "inbound_nodes": [{"args": [{"class_name": "__keras_tensor__", "config": {"shape": [null, 300, 300, 3], "dtype": "float32", "keras_history": ["input_layer_2", 0, 0]}}], "kwargs": {}}]}, {"class_name": "BatchNormalization", "config": {"name": "stem_bn", "trainable": false, "dtype": "float32", "axis": 3, "momentum": 0.9, "epsilon": 0.001, "center": true, "scale": true, "beta_initializer": {"module": "keras.initializers", "class_name": "Zeros", "config": {}, "registered_name": null}, "gamma_initializer": {"module": "keras.initializers", "class_name": "Ones", "config": {}, "registered_name": null}, "moving_mean_initializer": {"module": "keras.initializers", "class_name": "Zeros", "config": {}, "registered_name": null}, "moving_variance_initializer": {"module": "keras.initializers", "class_name": "Ones", "config": {}, "registered_name": null}, "beta_regularizer": null, "gamma_regularizer": null, "beta_constraint": null, "gamma_constraint": null, "synchronized": false}, "name": "stem_bn", "inbound_nodes": [{"args": [{"class_name": "__keras_tensor__", "config": {"shape": [null, 150, 150, 40], "dtype": "float32", "keras_history": ["stem_conv", 0, 0]}}], "kwargs": {"mask": null}}]}, {"class_name": "Activation", "config": {"name": "stem_activation", "trainable": false, "dtype": "float32", "activation": "silu"}, "name": "stem_activation", "inbound_nodes": [{"args": [{"class_name": "__keras_tensor__", "config": {"shape": [null, 150, 150, 40], "dtype": "float32", "keras_history": ["stem_bn", 0, 0]}}], "kwargs": {}}]}, {"class_name": "Conv2D", "config": {"name": "block1a_project_conv", "trainable": false, "dtype": "float32", "filters": 16, "kernel_size": [3, 3], "strides": [1, 1], "padding": "same", "data_format": "channels_last", "dilation_rate": [1, 1], "groups": 1, "activation": "linear", "use_bias": false, "kernel_initializer": {"module": "keras.initializers", "class_name": "VarianceScaling", "config": {"scale": 2.0, "mode": "fan_out", "distribution": "truncated_normal", "seed": null}, "registered_name": null}, "bias_initializer": {"module": "keras.initializers", "class_name": "Zeros", "config": {}, "registered_name": null}, "kernel_regularizer": null, "bias_regularizer": null, "activity_regularizer": null, "kernel_constraint": null, "bias_constraint": null}, "name": "block1a_project_conv", "inbound_nodes": [{"args": [{"class_name": "__keras_tensor__", "config": {"shape": [null, 150, 150, 40], "dtype": "float32", "keras_history": ["stem_activation", 0, 0]}}], "kwargs": {}}]}, {"class_name": "BatchNormalization", "config": {"name": "block1a_project_bn", "trainable": false, "dtype": "float32", "axis": 3, "momentum": 0.9, "epsilon": 0.001, "center": true, "scale": true, "beta_initializer": {"module": "keras.initializers", "class_name": "Zeros", "config": {}, "registered_name": null}, "gamma_initializer": {"module": "keras.initializers", "class_name": "Ones", "config": {}, "registered_name": null}, "moving_mean_initializer": {"module": "keras.initializers", "class_name": "Zeros", "config": {}, "registered_name": null}, "moving_variance_initializer": {"module": "keras.initializers", "class_name": "Ones", "config": {}, "registered_name": null}, "beta_regularizer": null, "gamma_regularizer": null, "beta_constraint": null, "gamma_constraint": null, "synchronized": false}, "name": "block1a_project_bn", "inbound_nodes": [{"args": [{"class_name": "__keras_tensor__", "config": {"shape": [null, 150, 150, 16], "dtype": "float32", "keras_history": ["block1a_project_conv", 0, 0]}}], "kwargs": {"mask": null}}]}, {"class_name": "Activation", "config": {"name": "block1a_project_activation", "trainable": false, "dtype": "float32", "activation": "silu"}, "name": "block1a_project_activation", "inbound_nodes": [{"args": [{"class_name": "__keras_tensor__", "config": {"shape": [null, 150, 150, 16], "dtype": "float32", "keras_history": ["block1a_project_bn", 0, 0]}}], "kwargs": {}}]}, {"class_name": "Conv2D", "config": {"name": "block1b_project_conv", "trainable": false, "dtype": "float32", "filters": 16, "kernel_size": [3, 3], "strides": [1, 1], "padding": "same", "data_format": "channels_last", "dilation_rate": [1, 1], "groups": 1, "activation": "linear", "use_bias": false, "kernel_initializer": {"module": "keras.initializers", "class_name": "VarianceScaling", "config": {"scale": 2.0, "mode": "fan_out", "distribution": "truncated_normal", "seed": null}, "registered_name": null}, "bias_initializer": {"module": "keras.initializers", "class_name": "Zeros", "config": {}, "registered_name": null}, "kernel_regularizer": null, "bias_regularizer": null, "activity_regularizer": null, "kernel_constraint": null, "bias_constraint": null}, "name": "block1b_project_conv", "inbound_nodes": [{"args": [{"class_name": "__keras_tensor__", "config": {"shape": [null, 150, 150, 16], "dtype": "float32", "keras_history": ["block1a_project_activation", 0, 0]}}], "kwargs": {}}]}, {"class_name": "BatchNormalization", "config": {"name": "block1b_project_bn", "trainable": false, "dtype": "float32", "axis": 3, "momentum": 0.9, "epsilon": 0.001, "center": true, "scale": true, "beta_initializer": {"module": "keras.initializers", "class_name": "Zeros", "config": {}, "registered_name": null}, "gamma_initializer": {"module": "keras.initializers", "class_name": "Ones", "config": {}, "registered_name": null}, "moving_mean_initializer": {"module": "keras.initializers", "class_name": "Zeros", "config": {}, "registered_name": null}, "moving_variance_initializer": {"module": "keras.initializers", "class_name": "Ones", "config": {}, "registered_name": null}, "beta_regularizer": null, "gamma_regularizer": null, "beta_constraint": null, "gamma_constraint": null, "synchronized": false}, "name": "block1b_project_bn", "inbound_nodes": [{"args": [{"class_name": "__keras_tensor__", "config": {"shape": [null, 150, 150, 16], "dtype": "float32", "keras_history": ["block1b_project_conv", 0, 0]}}], "kwargs": {"mask": null}}]}, {"class_name": "Activation", "config": {"name": "block1b_project_activation", "trainable": false, "dtype": "float32", "activation": "silu"}, "name": "block1b_project_activation", "inbound_nodes": [{"args": [{"class_name": "__keras_tensor__", "config": {"shape": [null, 150, 150, 16], "dtype": "float32", "keras_history": ["block1b_project_bn", 0, 0]}}], "kwargs": {}}]}, {"class_name": "Dropout", "config": {"name": "block1b_drop", "trainable": false, "dtype": "float32", "rate": 0.009523809523809525, "seed": null, "noise_shape": [null, 1, 1, 1]}, "name": "block1b_drop", "inbound_nodes": [{"args": [{"class_name": "__keras_tensor__", "config": {"shape": [null, 150, 150, 16], "dtype": "float32", "keras_history": ["block1b_project_activation", 0, 0]}}], "kwargs": {"training": false}}]}, {"class_name": "Add", "config": {"name": "block1b_add", "trainable": false, "dtype": "float32"}, "name": "block1b_add", "inbound_nodes": [{"args": [[{"class_name": "__keras_tensor__", "config": {"shape": [null, 150, 150, 16], "dtype": "float32", "keras_history": ["block1b_drop", 0, 0]}}, {"class_name": "__keras_tensor__", "config": {"shape": [null, 150, 150, 16], "dtype": "float32", "keras_history": ["block1a_project_activation", 0, 0]}}]], "kwargs": {}}]}, {"class_name": "Conv2D", "config": {"name": "block2a_expand_conv", "trainable": false, "dtype": "float32", "filters": 64, "kernel_size": [3, 3], "strides": [2, 2], "padding": "same", "data_format": "channels_last", "dilation_rate": [1, 1], "groups": 1, "activation": "linear", "use_bias": false, "kernel_initializer": {"module": "keras.initializers", "class_name": "VarianceScaling", "config": {"scale": 2.0, "mode": "fan_out", "distribution": "truncated_normal", "seed": null}, "registered_name": null}, "bias_initializer": {"module": "keras.initializers", "class_name": "Zeros", "config": {}, "registered_name": null}, "kernel_regularizer": null, "bias_regularizer": null, "activity_regularizer": null, "kernel_constraint": null, "bias_constraint": null}, "name": "block2a_expand_conv", "inbound_nodes": [{"args": [{"class_name": "__keras_tensor__", "config": {"shape": [null, 150, 150, 16], "dtype": "float32", "keras_history": ["block1b_add", 0, 0]}}], "kwargs": {}}]}, {"class_name": "BatchNormalization", "config": {"name": "block2a_expand_bn", "trainable": false, "dtype": "float32", "axis": 3, "momentum": 0.9, "epsilon": 0.001, "center": true, "scale": true, "beta_initializer": {"module": "keras.initializers", "class_name": "Zeros", "config": {}, "registered_name": null}, "gamma_initializer": {"module": "keras.initializers", "class_name": "Ones", "config": {}, "registered_name": null}, "moving_mean_initializer": {"module": "keras.initializers", "class_name": "Zeros", "config": {}, "registered_name": null}, "moving_variance_initializer": {"module": "keras.initializers", "class_name": "Ones", "config": {}, "registered_name": null}, "beta_regularizer": null, "gamma_regularizer": null, "beta_constraint": null, "gamma_constraint": null, "synchronized": false}, "name": "block2a_expand_bn", "inbound_nodes": [{"args": [{"class_name": "__keras_tensor__", "config": {"shape": [null, 75, 75, 64], "dtype": "float32", "keras_history": ["block2a_expand_conv", 0, 0]}}], "kwargs": {"mask": null}}]}, {"class_name": "Activation", "config": {"name": "block2a_expand_activation", "trainable": false, "dtype": "float32", "activation": "silu"}, "name": "block2a_expand_activation", "inbound_nodes": [{"args": [{"class_name": "__keras_tensor__", "config": {"shape": [null, 75, 75, 64], "dtype": "float32", "keras_history": ["block2a_expand_bn", 0, 0]}}], "kwargs": {}}]}, {"class_name": "Conv2D", "config": {"name": "block2a_project_conv", "trainable": false, "dtype": "float32", "filters": 40, "kernel_size": [1, 1], "strides": [1, 1], "padding": "same", "data_format": "channels_last", "dilation_rate": [1, 1], "groups": 1, "activation": "linear", "use_bias": false, "kernel_initializer": {"module": "keras.initializers", "class_name": "VarianceScaling", "config": {"scale": 2.0, "mode": "fan_out", "distribution": "truncated_normal", "seed": null}, "registered_name": null}, "bias_initializer": {"module": "keras.initializers", "class_name": "Zeros", "config": {}, "registered_name": null}, "kernel_regularizer": null, "bias_regularizer": null, "activity_regularizer": null, "kernel_constraint": null, "bias_constraint": null}, "name": "block2a_project_conv", "inbound_nodes": [{"args": [{"class_name": "__keras_tensor__", "config": {"shape": [null, 75, 75, 64], "dtype": "float32", "keras_history": ["block2a_expand_activation", 0, 0]}}], "kwargs": {}}]}, {"class_name": "BatchNormalization", "config": {"name": "block2a_project_bn", "trainable": false, "dtype": "float32", "axis": 3, "momentum": 0.9, "epsilon": 0.001, "center": true, "scale": true, "beta_initializer": {"module": "keras.initializers", "class_name": "Zeros", "config": {}, "registered_name": null}, "gamma_initializer": {"module": "keras.initializers", "class_name": "Ones", "config": {}, "registered_name": null}, "moving_mean_initializer": {"module": "keras.initializers", "class_name": "Zeros", "config": {}, "registered_name": null}, "moving_variance_initializer": {"module": "keras.initializers", "class_name": "Ones", "config": {}, "registered_name": null}, "beta_regularizer": null, "gamma_regularizer": null, "beta_constraint": null, "gamma_constraint": null, "synchronized": false}, "name": "block2a_project_bn", "inbound_nodes": [{"args": [{"class_name": "__keras_tensor__", "config": {"shape": [null, 75, 75, 40], "dtype": "float32", "keras_history": ["block2a_project_conv", 0, 0]}}], "kwargs": {"mask": null}}]}, {"class_name": "Conv2D", "config": {"name": "block2b_expand_conv", "trainable": false, "dtype": "float32", "filters": 160, "kernel_size": [3, 3], "strides": [1, 1], "padding": "same", "data_format": "channels_last", "dilation_rate": [1, 1], "groups": 1, "activation": "linear", "use_bias": false, "kernel_initializer": {"module": "keras.initializers", "class_name": "VarianceScaling", "config": {"scale": 2.0, "mode": "fan_out", "distribution": "truncated_normal", "seed": null}, "registered_name": null}, "bias_initializer": {"module": "keras.initializers", "class_name": "Zeros", "config": {}, "registered_name": null}, "kernel_regularizer": null, "bias_regularizer": null, "activity_regularizer": null, "kernel_constraint": null, "bias_constraint": null}, "name": "block2b_expand_conv", "inbound_nodes": [{"args": [{"class_name": "__keras_tensor__", "config": {"shape": [null, 75, 75, 40], "dtype": "float32", "keras_history": ["block2a_project_bn", 0, 0]}}], "kwargs": {}}]}, {"class_name": "BatchNormalization", "config": {"name": "block2b_expand_bn", "trainable": false, "dtype": "float32", "axis": 3, "momentum": 0.9, "epsilon": 0.001, "center": true, "scale": true, "beta_initializer": {"module": "keras.initializers", "class_name": "Zeros", "config": {}, "registered_name": null}, "gamma_initializer": {"module": "keras.initializers", "class_name": "Ones", "config": {}, "registered_name": null}, "moving_mean_initializer": {"module": "keras.initializers", "class_name": "Zeros", "config": {}, "registered_name": null}, "moving_variance_initializer": {"module": "keras.initializers", "class_name": "Ones", "config": {}, "registered_name": null}, "beta_regularizer": null, "gamma_regularizer": null, "beta_constraint": null, "gamma_constraint": null, "synchronized": false}, "name": "block2b_expand_bn", "inbound_nodes": [{"args": [{"class_name": "__keras_tensor__", "config": {"shape": [null, 75, 75, 160], "dtype": "float32", "keras_history": ["block2b_expand_conv", 0, 0]}}], "kwargs": {"mask": null}}]}, {"class_name": "Activation", "config": {"name": "block2b_expand_activation", "trainable": false, "dtype": "float32", "activation": "silu"}, "name": "block2b_expand_activation", "inbound_nodes": [{"args": [{"class_name": "__keras_tensor__", "config": {"shape": [null, 75, 75, 160], "dtype": "float32", "keras_history": ["block2b_expand_bn", 0, 0]}}], "kwargs": {}}]}, {"class_name": "Conv2D", "config": {"name": "block2b_project_conv", "trainable": false, "dtype": "float32", "filters": 40, "kernel_size": [1, 1], "strides": [1, 1], "padding": "same", "data_format": "channels_last", "dilation_rate": [1, 1], "groups": 1, "activation": "linear", "use_bias": false, "kernel_initializer": {"module": "keras.initializers", "class_name": "VarianceScaling", "config": {"scale": 2.0, "mode": "fan_out", "distribution": "truncated_normal", "seed": null}, "registered_name": null}, "bias_initializer": {"module": "keras.initializers", "class_name": "Zeros", "config": {}, "registered_name": null}, "kernel_regularizer": null, "bias_regularizer": null, "activity_regularizer": null, "kernel_constraint": null, "bias_constraint": null}, "name": "block2b_project_conv", "inbound_nodes": [{"args": [{"class_name": "__keras_tensor__", "config": {"shape": [null, 75, 75, 160], "dtype": "float32", "keras_history": ["block2b_expand_activation", 0, 0]}}], "kwargs": {}}]}, {"class_name": "BatchNormalization", "config": {"name": "block2b_project_bn", "trainable": false, "dtype": "float32", "axis": 3, "momentum": 0.9, "epsilon": 0.001, "center": true, "scale": true, "beta_initializer": {"module": "keras.initializers", "class_name": "Zeros", "config": {}, "registered_name": null}, "gamma_initializer": {"module": "keras.initializers", "class_name": "Ones", "config": {}, "registered_name": null}, "moving_mean_initializer": {"module": "keras.initializers", "class_name": "Zeros", "config": {}, "registered_name": null}, "moving_variance_initializer": {"module": "keras.initializers", "class_name": "Ones", "config": {}, "registered_name": null}, "beta_regularizer": null, "gamma_regularizer": null, "beta_constraint": null, "gamma_constraint": null, "synchronized": false}, "name": "block2b_project_bn", "inbound_nodes": [{"args": [{"class_name": "__keras_tensor__", "config": {"shape": [null, 75, 75, 40], "dtype": "float32", "keras_history": ["block2b_project_conv", 0, 0]}}], "kwargs": {"mask": null}}]}, {"class_name": "Dropout", "config": {"name": "block2b_drop", "trainable": false, "dtype": "float32", "rate": 0.028571428571428574, "seed": null, "noise_shape": [null, 1, 1, 1]}, "name": "block2b_drop", "inbound_nodes": [{"args": [{"class_name": "__keras_tensor__", "config": {"shape": [null, 75, 75, 40], "dtype": "float32", "keras_history": ["block2b_project_bn", 0, 0]}}], "kwargs": {"training": false}}]}, {"class_name": "Add", "config": {"name": "block2b_add", "trainable": false, "dtype": "float32"}, "name": "block2b_add", "inbound_nodes": [{"args": [[{"class_name": "__keras_tensor__", "config": {"shape": [null, 75, 75, 40], "dtype": "float32", "keras_history": ["block2b_drop", 0, 0]}}, {"class_name": "__keras_tensor__", "config": {"shape": [null, 75, 75, 40], "dtype": "float32", "keras_history": ["block2a_project_bn", 0, 0]}}]], "kwargs": {}}]}, {"class_name": "Conv2D", "config": {"name": "block2c_expand_conv", "trainable": false, "dtype": "float32", "filters": 160, "kernel_size": [3, 3], "strides": [1, 1], "padding": "same", "data_format": "channels_last", "dilation_rate": [1, 1], "groups": 1, "activation": "linear", "use_bias": false, "kernel_initializer": {"module": "keras.initializers", "class_name": "VarianceScaling", "config": {"scale": 2.0, "mode": "fan_out", "distribution": "truncated_normal", "seed": null}, "registered_name": null}, "bias_initializer": {"module": "keras.initializers", "class_name": "Zeros", "config": {}, "registered_name": null}, "kernel_regularizer": null, "bias_regularizer": null, "activity_regularizer": null, "kernel_constraint": null, "bias_constraint": null}, "name": "block2c_expand_conv", "inbound_nodes": [{"args": [{"class_name": "__keras_tensor__", "config": {"shape": [null, 75, 75, 40], "dtype": "float32", "keras_history": ["block2b_add", 0, 0]}}], "kwargs": {}}]}, {"class_name": "BatchNormalization", "config": {"name": "block2c_expand_bn", "trainable": false, "dtype": "float32", "axis": 3, "momentum": 0.9, "epsilon": 0.001, "center": true, "scale": true, "beta_initializer": {"module": "keras.initializers", "class_name": "Zeros", "config": {}, "registered_name": null}, "gamma_initializer": {"module": "keras.initializers", "class_name": "Ones", "config": {}, "registered_name": null}, "moving_mean_initializer": {"module": "keras.initializers", "class_name": "Zeros", "config": {}, "registered_name": null}, "moving_variance_initializer": {"module": "keras.initializers", "class_name": "Ones", "config": {}, "registered_name": null}, "beta_regularizer": null, "gamma_regularizer": null, "beta_constraint": null, "gamma_constraint": null, "synchronized": false}, "name": "block2c_expand_bn", "inbound_nodes": [{"args": [{"class_name": "__keras_tensor__", "config": {"shape": [null, 75, 75, 160], "dtype": "float32", "keras_history": ["block2c_expand_conv", 0, 0]}}], "kwargs": {"mask": null}}]}, {"class_name": "Activation", "config": {"name": "block2c_expand_activation", "trainable": false, "dtype": "float32", "activation": "silu"}, "name": "block2c_expand_activation", "inbound_nodes": [{"args": [{"class_name": "__keras_tensor__", "config": {"shape": [null, 75, 75, 160], "dtype": "float32", "keras_history": ["block2c_expand_bn", 0, 0]}}], "kwargs": {}}]}, {"class_name": "Conv2D", "config": {"name": "block2c_project_conv", "trainable": false, "dtype": "float32", "filters": 40, "kernel_size": [1, 1], "strides": [1, 1], "padding": "same", "data_format": "channels_last", "dilation_rate": [1, 1], "groups": 1, "activation": "linear", "use_bias": false, "kernel_initializer": {"module": "keras.initializers", "class_name": "VarianceScaling", "config": {"scale": 2.0, "mode": "fan_out", "distribution": "truncated_normal", "seed": null}, "registered_name": null}, "bias_initializer": {"module": "keras.initializers", "class_name": "Zeros", "config": {}, "registered_name": null}, "kernel_regularizer": null, "bias_regularizer": null, "activity_regularizer": null, "kernel_constraint": null, "bias_constraint": null}, "name": "block2c_project_conv", "inbound_nodes": [{"args": [{"class_name": "__keras_tensor__", "config": {"shape": [null, 75, 75, 160], "dtype": "float32", "keras_history": ["block2c_expand_activation", 0, 0]}}], "kwargs": {}}]}, {"class_name": "BatchNormalization", "config": {"name": "block2c_project_bn", "trainable": false, "dtype": "float32", "axis": 3, "momentum": 0.9, "epsilon": 0.001, "center": true, "scale": true, "beta_initializer": {"module": "keras.initializers", "class_name": "Zeros", "config": {}, "registered_name": null}, "gamma_initializer": {"module": "keras.initializers", "class_name": "Ones", "config": {}, "registered_name": null}, "moving_mean_initializer": {"module": "keras.initializers", "class_name": "Zeros", "config": {}, "registered_name": null}, "moving_variance_initializer": {"module": "keras.initializers", "class_name": "Ones", "config": {}, "registered_name": null}, "beta_regularizer": null, "gamma_regularizer": null, "beta_constraint": null, "gamma_constraint": null, "synchronized": false}, "name": "block2c_project_bn", "inbound_nodes": [{"args": [{"class_name": "__keras_tensor__", "config": {"shape": [null, 75, 75, 40], "dtype": "float32", "keras_history": ["block2c_project_conv", 0, 0]}}], "kwargs": {"mask": null}}]}, {"class_name": "Dropout", "config": {"name": "block2c_drop", "trainable": false, "dtype": "float32", "rate": 0.0380952380952381, "seed": null, "noise_shape": [null, 1, 1, 1]}, "name": "block2c_drop", "inbound_nodes": [{"args": [{"class_name": "__keras_tensor__", "config": {"shape": [null, 75, 75, 40], "dtype": "float32", "keras_history": ["block2c_project_bn", 0, 0]}}], "kwargs": {"training": false}}]}, {"class_name": "Add", "config": {"name": "block2c_add", "trainable": false, "dtype": "float32"}, "name": "block2c_add", "inbound_nodes": [{"args": [[{"class_name": "__keras_tensor__", "config": {"shape": [null, 75, 75, 40], "dtype": "float32", "keras_history": ["block2c_drop", 0, 0]}}, {"class_name": "__keras_tensor__", "config": {"shape": [null, 75, 75, 40], "dtype": "float32", "keras_history": ["block2b_add", 0, 0]}}]], "kwargs": {}}]}, {"class_name": "Conv2D", "config": {"name": "block3a_expand_conv", "trainable": false, "dtype": "float32", "filters": 160, "kernel_size": [3, 3], "strides": [2, 2], "padding": "same", "data_format": "channels_last", "dilation_rate": [1, 1], "groups": 1, "activation": "linear", "use_bias": false, "kernel_initializer": {"module": "keras.initializers", "class_name": "VarianceScaling", "config": {"scale": 2.0, "mode": "fan_out", "distribution": "truncated_normal", "seed": null}, "registered_name": null}, "bias_initializer": {"module": "keras.initializers", "class_name": "Zeros", "config": {}, "registered_name": null}, "kernel_regularizer": null, "bias_regularizer": null, "activity_regularizer": null, "kernel_constraint": null, "bias_constraint": null}, "name": "block3a_expand_conv", "inbound_nodes": [{"args": [{"class_name": "__keras_tensor__", "config": {"shape": [null, 75, 75, 40], "dtype": "float32", "keras_history": ["block2c_add", 0, 0]}}], "kwargs": {}}]}, {"class_name": "BatchNormalization", "config": {"name": "block3a_expand_bn", "trainable": false, "dtype": "float32", "axis": 3, "momentum": 0.9, "epsilon": 0.001, "center": true, "scale": true, "beta_initializer": {"module": "keras.initializers", "class_name": "Zeros", "config": {}, "registered_name": null}, "gamma_initializer": {"module": "keras.initializers", "class_name": "Ones", "config": {}, "registered_name": null}, "moving_mean_initializer": {"module": "keras.initializers", "class_name": "Zeros", "config": {}, "registered_name": null}, "moving_variance_initializer": {"module": "keras.initializers", "class_name": "Ones", "config": {}, "registered_name": null}, "beta_regularizer": null, "gamma_regularizer": null, "beta_constraint": null, "gamma_constraint": null, "synchronized": false}, "name": "block3a_expand_bn", "inbound_nodes": [{"args": [{"class_name": "__keras_tensor__", "config": {"shape": [null, 38, 38, 160], "dtype": "float32", "keras_history": ["block3a_expand_conv", 0, 0]}}], "kwargs": {"mask": null}}]}, {"class_name": "Activation", "config": {"name": "block3a_expand_activation", "trainable": false, "dtype": "float32", "activation": "silu"}, "name": "block3a_expand_activation", "inbound_nodes": [{"args": [{"class_name": "__keras_tensor__", "config": {"shape": [null, 38, 38, 160], "dtype": "float32", "keras_history": ["block3a_expand_bn", 0, 0]}}], "kwargs": {}}]}, {"class_name": "Conv2D", "config": {"name": "block3a_project_conv", "trainable": false, "dtype": "float32", "filters": 56, "kernel_size": [1, 1], "strides": [1, 1], "padding": "same", "data_format": "channels_last", "dilation_rate": [1, 1], "groups": 1, "activation": "linear", "use_bias": false, "kernel_initializer": {"module": "keras.initializers", "class_name": "VarianceScaling", "config": {"scale": 2.0, "mode": "fan_out", "distribution": "truncated_normal", "seed": null}, "registered_name": null}, "bias_initializer": {"module": "keras.initializers", "class_name": "Zeros", "config": {}, "registered_name": null}, "kernel_regularizer": null, "bias_regularizer": null, "activity_regularizer": null, "kernel_constraint": null, "bias_constraint": null}, "name": "block3a_project_conv", "inbound_nodes": [{"args": [{"class_name": "__keras_tensor__", "config": {"shape": [null, 38, 38, 160], "dtype": "float32", "keras_history": ["block3a_expand_activation", 0, 0]}}], "kwargs": {}}]}, {"class_name": "BatchNormalization", "config": {"name": "block3a_project_bn", "trainable": false, "dtype": "float32", "axis": 3, "momentum": 0.9, "epsilon": 0.001, "center": true, "scale": true, "beta_initializer": {"module": "keras.initializers", "class_name": "Zeros", "config": {}, "registered_name": null}, "gamma_initializer": {"module": "keras.initializers", "class_name": "Ones", "config": {}, "registered_name": null}, "moving_mean_initializer": {"module": "keras.initializers", "class_name": "Zeros", "config": {}, "registered_name": null}, "moving_variance_initializer": {"module": "keras.initializers", "class_name": "Ones", "config": {}, "registered_name": null}, "beta_regularizer": null, "gamma_regularizer": null, "beta_constraint": null, "gamma_constraint": null, "synchronized": false}, "name": "block3a_project_bn", "inbound_nodes": [{"args": [{"class_name": "__keras_tensor__", "config": {"shape": [null, 38, 38, 56], "dtype": "float32", "keras_history": ["block3a_project_conv", 0, 0]}}], "kwargs": {"mask": null}}]}, {"class_name": "Conv2D", "config": {"name": "block3b_expand_conv", "trainable": false, "dtype": "float32", "filters": 224, "kernel_size": [3, 3], "strides": [1, 1], "padding": "same", "data_format": "channels_last", "dilation_rate": [1, 1], "groups": 1, "activation": "linear", "use_bias": false, "kernel_initializer": {"module": "keras.initializers", "class_name": "VarianceScaling", "config": {"scale": 2.0, "mode": "fan_out", "distribution": "truncated_normal", "seed": null}, "registered_name": null}, "bias_initializer": {"module": "keras.initializers", "class_name": "Zeros", "config": {}, "registered_name": null}, "kernel_regularizer": null, "bias_regularizer": null, "activity_regularizer": null, "kernel_constraint": null, "bias_constraint": null}, "name": "block3b_expand_conv", "inbound_nodes": [{"args": [{"class_name": "__keras_tensor__", "config": {"shape": [null, 38, 38, 56], "dtype": "float32", "keras_history": ["block3a_project_bn", 0, 0]}}], "kwargs": {}}]}, {"class_name": "BatchNormalization", "config": {"name": "block3b_expand_bn", "trainable": false, "dtype": "float32", "axis": 3, "momentum": 0.9, "epsilon": 0.001, "center": true, "scale": true, "beta_initializer": {"module": "keras.initializers", "class_name": "Zeros", "config": {}, "registered_name": null}, "gamma_initializer": {"module": "keras.initializers", "class_name": "Ones", "config": {}, "registered_name": null}, "moving_mean_initializer": {"module": "keras.initializers", "class_name": "Zeros", "config": {}, "registered_name": null}, "moving_variance_initializer": {"module": "keras.initializers", "class_name": "Ones", "config": {}, "registered_name": null}, "beta_regularizer": null, "gamma_regularizer": null, "beta_constraint": null, "gamma_constraint": null, "synchronized": false}, "name": "block3b_expand_bn", "inbound_nodes": [{"args": [{"class_name": "__keras_tensor__", "config": {"shape": [null, 38, 38, 224], "dtype": "float32", "keras_history": ["block3b_expand_conv", 0, 0]}}], "kwargs": {"mask": null}}]}, {"class_name": "Activation", "config": {"name": "block3b_expand_activation", "trainable": false, "dtype": "float32", "activation": "silu"}, "name": "block3b_expand_activation", "inbound_nodes": [{"args": [{"class_name": "__keras_tensor__", "config": {"shape": [null, 38, 38, 224], "dtype": "float32", "keras_history": ["block3b_expand_bn", 0, 0]}}], "kwargs": {}}]}, {"class_name": "Conv2D", "config": {"name": "block3b_project_conv", "trainable": false, "dtype": "float32", "filters": 56, "kernel_size": [1, 1], "strides": [1, 1], "padding": "same", "data_format": "channels_last", "dilation_rate": [1, 1], "groups": 1, "activation": "linear", "use_bias": false, "kernel_initializer": {"module": "keras.initializers", "class_name": "VarianceScaling", "config": {"scale": 2.0, "mode": "fan_out", "distribution": "truncated_normal", "seed": null}, "registered_name": null}, "bias_initializer": {"module": "keras.initializers", "class_name": "Zeros", "config": {}, "registered_name": null}, "kernel_regularizer": null, "bias_regularizer": null, "activity_regularizer": null, "kernel_constraint": null, "bias_constraint": null}, "name": "block3b_project_conv", "inbound_nodes": [{"args": [{"class_name": "__keras_tensor__", "config": {"shape": [null, 38, 38, 224], "dtype": "float32", "keras_history": ["block3b_expand_activation", 0, 0]}}], "kwargs": {}}]}, {"class_name": "BatchNormalization", "config": {"name": "block3b_project_bn", "trainable": false, "dtype": "float32", "axis": 3, "momentum": 0.9, "epsilon": 0.001, "center": true, "scale": true, "beta_initializer": {"module": "keras.initializers", "class_name": "Zeros", "config": {}, "registered_name": null}, "gamma_initializer": {"module": "keras.initializers", "class_name": "Ones", "config": {}, "registered_name": null}, "moving_mean_initializer": {"module": "keras.initializers", "class_name": "Zeros", "config": {}, "registered_name": null}, "moving_variance_initializer": {"module": "keras.initializers", "class_name": "Ones", "config": {}, "registered_name": null}, "beta_regularizer": null, "gamma_regularizer": null, "beta_constraint": null, "gamma_constraint": null, "synchronized": false}, "name": "block3b_project_bn", "inbound_nodes": [{"args": [{"class_name": "__keras_tensor__", "config": {"shape": [null, 38, 38, 56], "dtype": "float32", "keras_history": ["block3b_project_conv", 0, 0]}}], "kwargs": {"mask": null}}]}, {"class_name": "Dropout", "config": {"name": "block3b_drop", "trainable": false, "dtype": "float32", "rate": 0.05714285714285715, "seed": null, "noise_shape": [null, 1, 1, 1]}, "name": "block3b_drop", "inbound_nodes": [{"args": [{"class_name": "__keras_tensor__", "config": {"shape": [null, 38, 38, 56], "dtype": "float32", "keras_history": ["block3b_project_bn", 0, 0]}}], "kwargs": {"training": false}}]}, {"class_name": "Add", "config": {"name": "block3b_add", "trainable": false, "dtype": "float32"}, "name": "block3b_add", "inbound_nodes": [{"args": [[{"class_name": "__keras_tensor__", "config": {"shape": [null, 38, 38, 56], "dtype": "float32", "keras_history": ["block3b_drop", 0, 0]}}, {"class_name": "__keras_tensor__", "config": {"shape": [null, 38, 38, 56], "dtype": "float32", "keras_history": ["block3a_project_bn", 0, 0]}}]], "kwargs": {}}]}, {"class_name": "Conv2D", "config": {"name": "block3c_expand_conv", "trainable": false, "dtype": "float32", "filters": 224, "kernel_size": [3, 3], "strides": [1, 1], "padding": "same", "data_format": "channels_last", "dilation_rate": [1, 1], "groups": 1, "activation": "linear", "use_bias": false, "kernel_initializer": {"module": "keras.initializers", "class_name": "VarianceScaling", "config": {"scale": 2.0, "mode": "fan_out", "distribution": "truncated_normal", "seed": null}, "registered_name": null}, "bias_initializer": {"module": "keras.initializers", "class_name": "Zeros", "config": {}, "registered_name": null}, "kernel_regularizer": null, "bias_regularizer": null, "activity_regularizer": null, "kernel_constraint": null, "bias_constraint": null}, "name": "block3c_expand_conv", "inbound_nodes": [{"args": [{"class_name": "__keras_tensor__", "config": {"shape": [null, 38, 38, 56], "dtype": "float32", "keras_history": ["block3b_add", 0, 0]}}], "kwargs": {}}]}, {"class_name": "BatchNormalization", "config": {"name": "block3c_expand_bn", "trainable": false, "dtype": "float32", "axis": 3, "momentum": 0.9, "epsilon": 0.001, "center": true, "scale": true, "beta_initializer": {"module": "keras.initializers", "class_name": "Zeros", "config": {}, "registered_name": null}, "gamma_initializer": {"module": "keras.initializers", "class_name": "Ones", "config": {}, "registered_name": null}, "moving_mean_initializer": {"module": "keras.initializers", "class_name": "Zeros", "config": {}, "registered_name": null}, "moving_variance_initializer": {"module": "keras.initializers", "class_name": "Ones", "config": {}, "registered_name": null}, "beta_regularizer": null, "gamma_regularizer": null, "beta_constraint": null, "gamma_constraint": null, "synchronized": false}, "name": "block3c_expand_bn", "inbound_nodes": [{"args": [{"class_name": "__keras_tensor__", "config": {"shape": [null, 38, 38, 224], "dtype": "float32", "keras_history": ["block3c_expand_conv", 0, 0]}}], "kwargs": {"mask": null}}]}, {"class_name": "Activation", "config": {"name": "block3c_expand_activation", "trainable": false, "dtype": "float32", "activation": "silu"}, "name": "block3c_expand_activation", "inbound_nodes": [{"args": [{"class_name": "__keras_tensor__", "config": {"shape": [null, 38, 38, 224], "dtype": "float32", "keras_history": ["block3c_expand_bn", 0, 0]}}], "kwargs": {}}]}, {"class_name": "Conv2D", "config": {"name": "block3c_project_conv", "trainable": false, "dtype": "float32", "filters": 56, "kernel_size": [1, 1], "strides": [1, 1], "padding": "same", "data_format": "channels_last", "dilation_rate": [1, 1], "groups": 1, "activation": "linear", "use_bias": false, "kernel_initializer": {"module": "keras.initializers", "class_name": "VarianceScaling", "config": {"scale": 2.0, "mode": "fan_out", "distribution": "truncated_normal", "seed": null}, "registered_name": null}, "bias_initializer": {"module": "keras.initializers", "class_name": "Zeros", "config": {}, "registered_name": null}, "kernel_regularizer": null, "bias_regularizer": null, "activity_regularizer": null, "kernel_constraint": null, "bias_constraint": null}, "name": "block3c_project_conv", "inbound_nodes": [{"args": [{"class_name": "__keras_tensor__", "config": {"shape": [null, 38, 38, 224], "dtype": "float32", "keras_history": ["block3c_expand_activation", 0, 0]}}], "kwargs": {}}]}, {"class_name": "BatchNormalization", "config": {"name": "block3c_project_bn", "trainable": false, "dtype": "float32", "axis": 3, "momentum": 0.9, "epsilon": 0.001, "center": true, "scale": true, "beta_initializer": {"module": "keras.initializers", "class_name": "Zeros", "config": {}, "registered_name": null}, "gamma_initializer": {"module": "keras.initializers", "class_name": "Ones", "config": {}, "registered_name": null}, "moving_mean_initializer": {"module": "keras.initializers", "class_name": "Zeros", "config": {}, "registered_name": null}, "moving_variance_initializer": {"module": "keras.initializers", "class_name": "Ones", "config": {}, "registered_name": null}, "beta_regularizer": null, "gamma_regularizer": null, "beta_constraint": null, "gamma_constraint": null, "synchronized": false}, "name": "block3c_project_bn", "inbound_nodes": [{"args": [{"class_name": "__keras_tensor__", "config": {"shape": [null, 38, 38, 56], "dtype": "float32", "keras_history": ["block3c_project_conv", 0, 0]}}], "kwargs": {"mask": null}}]}, {"class_name": "Dropout", "config": {"name": "block3c_drop", "trainable": false, "dtype": "float32", "rate": 0.06666666666666668, "seed": null, "noise_shape": [null, 1, 1, 1]}, "name": "block3c_drop", "inbound_nodes": [{"args": [{"class_name": "__keras_tensor__", "config": {"shape": [null, 38, 38, 56], "dtype": "float32", "keras_history": ["block3c_project_bn", 0, 0]}}], "kwargs": {"training": false}}]}, {"class_name": "Add", "config": {"name": "block3c_add", "trainable": false, "dtype": "float32"}, "name": "block3c_add", "inbound_nodes": [{"args": [[{"class_name": "__keras_tensor__", "config": {"shape": [null, 38, 38, 56], "dtype": "float32", "keras_history": ["block3c_drop", 0, 0]}}, {"class_name": "__keras_tensor__", "config": {"shape": [null, 38, 38, 56], "dtype": "float32", "keras_history": ["block3b_add", 0, 0]}}]], "kwargs": {}}]}, {"class_name": "Conv2D", "config": {"name": "block4a_expand_conv", "trainable": false, "dtype": "float32", "filters": 224, "kernel_size": [1, 1], "strides": [1, 1], "padding": "same", "data_format": "channels_last", "dilation_rate": [1, 1], "groups": 1, "activation": "linear", "use_bias": false, "kernel_initializer": {"module": "keras.initializers", "class_name": "VarianceScaling", "config": {"scale": 2.0, "mode": "fan_out", "distribution": "truncated_normal", "seed": null}, "registered_name": null}, "bias_initializer": {"module": "keras.initializers", "class_name": "Zeros", "config": {}, "registered_name": null}, "kernel_regularizer": null, "bias_regularizer": null, "activity_regularizer": null, "kernel_constraint": null, "bias_constraint": null}, "name": "block4a_expand_conv", "inbound_nodes": [{"args": [{"class_name": "__keras_tensor__", "config": {"shape": [null, 38, 38, 56], "dtype": "float32", "keras_history": ["block3c_add", 0, 0]}}], "kwargs": {}}]}, {"class_name": "BatchNormalization", "config": {"name": "block4a_expand_bn", "trainable": false, "dtype": "float32", "axis": 3, "momentum": 0.9, "epsilon": 0.001, "center": true, "scale": true, "beta_initializer": {"module": "keras.initializers", "class_name": "Zeros", "config": {}, "registered_name": null}, "gamma_initializer": {"module": "keras.initializers", "class_name": "Ones", "config": {}, "registered_name": null}, "moving_mean_initializer": {"module": "keras.initializers", "class_name": "Zeros", "config": {}, "registered_name": null}, "moving_variance_initializer": {"module": "keras.initializers", "class_name": "Ones", "config": {}, "registered_name": null}, "beta_regularizer": null, "gamma_regularizer": null, "beta_constraint": null, "gamma_constraint": null, "synchronized": false}, "name": "block4a_expand_bn", "inbound_nodes": [{"args": [{"class_name": "__keras_tensor__", "config": {"shape": [null, 38, 38, 224], "dtype": "float32", "keras_history": ["block4a_expand_conv", 0, 0]}}], "kwargs": {"mask": null}}]}, {"class_name": "Activation", "config": {"name": "block4a_expand_activation", "trainable": false, "dtype": "float32", "activation": "silu"}, "name": "block4a_expand_activation", "inbound_nodes": [{"args": [{"class_name": "__keras_tensor__", "config": {"shape": [null, 38, 38, 224], "dtype": "float32", "keras_history": ["block4a_expand_bn", 0, 0]}}], "kwargs": {}}]}, {"class_name": "DepthwiseConv2D", "config": {"name": "block4a_dwconv2", "trainable": false, "dtype": "float32", "depth_multiplier": 1, "kernel_size": [3, 3], "strides": [2, 2], "padding": "same", "data_format": "channels_last", "dilation_rate": [1, 1], "activation": "linear", "use_bias": false, "depthwise_initializer": {"module": "keras.initializers", "class_name": "VarianceScaling", "config": {"scale": 2.0, "mode": "fan_out", "distribution": "truncated_normal", "seed": null}, "registered_name": null}, "bias_initializer": {"module": "keras.initializers", "class_name": "Zeros", "config": {}, "registered_name": null}, "depthwise_regularizer": null, "bias_regularizer": null, "activity_regularizer": null, "depthwise_constraint": null, "bias_constraint": null}, "name": "block4a_dwconv2", "inbound_nodes": [{"args": [{"class_name": "__keras_tensor__", "config": {"shape": [null, 38, 38, 224], "dtype": "float32", "keras_history": ["block4a_expand_activation", 0, 0]}}], "kwargs": {}}]}, {"class_name": "BatchNormalization", "config": {"name": "block4a_bn", "trainable": false, "dtype": "float32", "axis": 3, "momentum": 0.9, "epsilon": 0.001, "center": true, "scale": true, "beta_initializer": {"module": "keras.initializers", "class_name": "Zeros", "config": {}, "registered_name": null}, "gamma_initializer": {"module": "keras.initializers", "class_name": "Ones", "config": {}, "registered_name": null}, "moving_mean_initializer": {"module": "keras.initializers", "class_name": "Zeros", "config": {}, "registered_name": null}, "moving_variance_initializer": {"module": "keras.initializers", "class_name": "Ones", "config": {}, "registered_name": null}, "beta_regularizer": null, "gamma_regularizer": null, "beta_constraint": null, "gamma_constraint": null, "synchronized": false}, "name": "block4a_bn", "inbound_nodes": [{"args": [{"class_name": "__keras_tensor__", "config": {"shape": [null, 19, 19, 224], "dtype": "float32", "keras_history": ["block4a_dwconv2", 0, 0]}}], "kwargs": {"mask": null}}]}, {"class_name": "Activation", "config": {"name": "block4a_activation", "trainable": false, "dtype": "float32", "activation": "silu"}, "name": "block4a_activation", "inbound_nodes": [{"args": [{"class_name": "__keras_tensor__", "config": {"shape": [null, 19, 19, 224], "dtype": "float32", "keras_history": ["block4a_bn", 0, 0]}}], "kwargs": {}}]}, {"class_name": "GlobalAveragePooling2D", "config": {"name": "block4a_se_squeeze", "trainable": false, "dtype": "float32", "data_format": "channels_last", "keepdims": false}, "name": "block4a_se_squeeze", "inbound_nodes": [{"args": [{"class_name": "__keras_tensor__", "config": {"shape": [null, 19, 19, 224], "dtype": "float32", "keras_history": ["block4a_activation", 0, 0]}}], "kwargs": {}}]}, {"class_name": "Reshape", "config": {"name": "block4a_se_reshape", "trainable": false, "dtype": "float32", "target_shape": [1, 1, 224]}, "name": "block4a_se_reshape", "inbound_nodes": [{"args": [{"class_name": "__keras_tensor__", "config": {"shape": [null, 224], "dtype": "float32", "keras_history": ["block4a_se_squeeze", 0, 0]}}], "kwargs": {}}]}, {"class_name": "Conv2D", "config": {"name": "block4a_se_reduce", "trainable": false, "dtype": "float32", "filters": 14, "kernel_size": [1, 1], "strides": [1, 1], "padding": "same", "data_format": "channels_last", "dilation_rate": [1, 1], "groups": 1, "activation": "silu", "use_bias": true, "kernel_initializer": {"module": "keras.initializers", "class_name": "VarianceScaling", "config": {"scale": 2.0, "mode": "fan_out", "distribution": "truncated_normal", "seed": null}, "registered_name": null}, "bias_initializer": {"module": "keras.initializers", "class_name": "Zeros", "config": {}, "registered_name": null}, "kernel_regularizer": null, "bias_regularizer": null, "activity_regularizer": null, "kernel_constraint": null, "bias_constraint": null}, "name": "block4a_se_reduce", "inbound_nodes": [{"args": [{"class_name": "__keras_tensor__", "config": {"shape": [null, 1, 1, 224], "dtype": "float32", "keras_history": ["block4a_se_reshape", 0, 0]}}], "kwargs": {}}]}, {"class_name": "Conv2D", "config": {"name": "block4a_se_expand", "trainable": false, "dtype": "float32", "filters": 224, "kernel_size": [1, 1], "strides": [1, 1], "padding": "same", "data_format": "channels_last", "dilation_rate": [1, 1], "groups": 1, "activation": "sigmoid", "use_bias": true, "kernel_initializer": {"module": "keras.initializers", "class_name": "VarianceScaling", "config": {"scale": 2.0, "mode": "fan_out", "distribution": "truncated_normal", "seed": null}, "registered_name": null}, "bias_initializer": {"module": "keras.initializers", "class_name": "Zeros", "config": {}, "registered_name": null}, "kernel_regularizer": null, "bias_regularizer": null, "activity_regularizer": null, "kernel_constraint": null, "bias_constraint": null}, "name": "block4a_se_expand", "inbound_nodes": [{"args": [{"class_name": "__keras_tensor__", "config": {"shape": [null, 1, 1, 14], "dtype": "float32", "keras_history": ["block4a_se_reduce", 0, 0]}}], "kwargs": {}}]}, {"class_name": "Multiply", "config": {"name": "block4a_se_excite", "trainable": false, "dtype": "float32"}, "name": "block4a_se_excite", "inbound_nodes": [{"args": [[{"class_name": "__keras_tensor__", "config": {"shape": [null, 19, 19, 224], "dtype": "float32", "keras_history": ["block4a_activation", 0, 0]}}, {"class_name": "__keras_tensor__", "config": {"shape": [null, 1, 1, 224], "dtype": "float32", "keras_history": ["block4a_se_expand", 0, 0]}}]], "kwargs": {}}]}, {"class_name": "Conv2D", "config": {"name": "block4a_project_conv", "trainable": false, "dtype": "float32", "filters": 112, "kernel_size": [1, 1], "strides": [1, 1], "padding": "same", "data_format": "channels_last", "dilation_rate": [1, 1], "groups": 1, "activation": "linear", "use_bias": false, "kernel_initializer": {"module": "keras.initializers", "class_name": "VarianceScaling", "config": {"scale": 2.0, "mode": "fan_out", "distribution": "truncated_normal", "seed": null}, "registered_name": null}, "bias_initializer": {"module": "keras.initializers", "class_name": "Zeros", "config": {}, "registered_name": null}, "kernel_regularizer": null, "bias_regularizer": null, "activity_regularizer": null, "kernel_constraint": null, "bias_constraint": null}, "name": "block4a_project_conv", "inbound_nodes": [{"args": [{"class_name": "__keras_tensor__", "config": {"shape": [null, 19, 19, 224], "dtype": "float32", "keras_history": ["block4a_se_excite", 0, 0]}}], "kwargs": {}}]}, {"class_name": "BatchNormalization", "config": {"name": "block4a_project_bn", "trainable": false, "dtype": "float32", "axis": 3, "momentum": 0.9, "epsilon": 0.001, "center": true, "scale": true, "beta_initializer": {"module": "keras.initializers", "class_name": "Zeros", "config": {}, "registered_name": null}, "gamma_initializer": {"module": "keras.initializers", "class_name": "Ones", "config": {}, "registered_name": null}, "moving_mean_initializer": {"module": "keras.initializers", "class_name": "Zeros", "config": {}, "registered_name": null}, "moving_variance_initializer": {"module": "keras.initializers", "class_name": "Ones", "config": {}, "registered_name": null}, "beta_regularizer": null, "gamma_regularizer": null, "beta_constraint": null, "gamma_constraint": null, "synchronized": false}, "name": "block4a_project_bn", "inbound_nodes": [{"args": [{"class_name": "__keras_tensor__", "config": {"shape": [null, 19, 19, 112], "dtype": "float32", "keras_history": ["block4a_project_conv", 0, 0]}}], "kwargs": {"mask": null}}]}, {"class_name": "Conv2D", "config": {"name": "block4b_expand_conv", "trainable": false, "dtype": "float32", "filters": 448, "kernel_size": [1, 1], "strides": [1, 1], "padding": "same", "data_format": "channels_last", "dilation_rate": [1, 1], "groups": 1, "activation": "linear", "use_bias": false, "kernel_initializer": {"module": "keras.initializers", "class_name": "VarianceScaling", "config": {"scale": 2.0, "mode": "fan_out", "distribution": "truncated_normal", "seed": null}, "registered_name": null}, "bias_initializer": {"module": "keras.initializers", "class_name": "Zeros", "config": {}, "registered_name": null}, "kernel_regularizer": null, "bias_regularizer": null, "activity_regularizer": null, "kernel_constraint": null, "bias_constraint": null}, "name": "block4b_expand_conv", "inbound_nodes": [{"args": [{"class_name": "__keras_tensor__", "config": {"shape": [null, 19, 19, 112], "dtype": "float32", "keras_history": ["block4a_project_bn", 0, 0]}}], "kwargs": {}}]}, {"class_name": "BatchNormalization", "config": {"name": "block4b_expand_bn", "trainable": false, "dtype": "float32", "axis": 3, "momentum": 0.9, "epsilon": 0.001, "center": true, "scale": true, "beta_initializer": {"module": "keras.initializers", "class_name": "Zeros", "config": {}, "registered_name": null}, "gamma_initializer": {"module": "keras.initializers", "class_name": "Ones", "config": {}, "registered_name": null}, "moving_mean_initializer": {"module": "keras.initializers", "class_name": "Zeros", "config": {}, "registered_name": null}, "moving_variance_initializer": {"module": "keras.initializers", "class_name": "Ones", "config": {}, "registered_name": null}, "beta_regularizer": null, "gamma_regularizer": null, "beta_constraint": null, "gamma_constraint": null, "synchronized": false}, "name": "block4b_expand_bn", "inbound_nodes": [{"args": [{"class_name": "__keras_tensor__", "config": {"shape": [null, 19, 19, 448], "dtype": "float32", "keras_history": ["block4b_expand_conv", 0, 0]}}], "kwargs": {"mask": null}}]}, {"class_name": "Activation", "config": {"name": "block4b_expand_activation", "trainable": false, "dtype": "float32", "activation": "silu"}, "name": "block4b_expand_activation", "inbound_nodes": [{"args": [{"class_name": "__keras_tensor__", "config": {"shape": [null, 19, 19, 448], "dtype": "float32", "keras_history": ["block4b_expand_bn", 0, 0]}}], "kwargs": {}}]}, {"class_name": "DepthwiseConv2D", "config": {"name": "block4b_dwconv2", "trainable": false, "dtype": "float32", "depth_multiplier": 1, "kernel_size": [3, 3], "strides": [1, 1], "padding": "same", "data_format": "channels_last", "dilation_rate": [1, 1], "activation": "linear", "use_bias": false, "depthwise_initializer": {"module": "keras.initializers", "class_name": "VarianceScaling", "config": {"scale": 2.0, "mode": "fan_out", "distribution": "truncated_normal", "seed": null}, "registered_name": null}, "bias_initializer": {"module": "keras.initializers", "class_name": "Zeros", "config": {}, "registered_name": null}, "depthwise_regularizer": null, "bias_regularizer": null, "activity_regularizer": null, "depthwise_constraint": null, "bias_constraint": null}, "name": "block4b_dwconv2", "inbound_nodes": [{"args": [{"class_name": "__keras_tensor__", "config": {"shape": [null, 19, 19, 448], "dtype": "float32", "keras_history": ["block4b_expand_activation", 0, 0]}}], "kwargs": {}}]}, {"class_name": "BatchNormalization", "config": {"name": "block4b_bn", "trainable": false, "dtype": "float32", "axis": 3, "momentum": 0.9, "epsilon": 0.001, "center": true, "scale": true, "beta_initializer": {"module": "keras.initializers", "class_name": "Zeros", "config": {}, "registered_name": null}, "gamma_initializer": {"module": "keras.initializers", "class_name": "Ones", "config": {}, "registered_name": null}, "moving_mean_initializer": {"module": "keras.initializers", "class_name": "Zeros", "config": {}, "registered_name": null}, "moving_variance_initializer": {"module": "keras.initializers", "class_name": "Ones", "config": {}, "registered_name": null}, "beta_regularizer": null, "gamma_regularizer": null, "beta_constraint": null, "gamma_constraint": null, "synchronized": false}, "name": "block4b_bn", "inbound_nodes": [{"args": [{"class_name": "__keras_tensor__", "config": {"shape": [null, 19, 19, 448], "dtype": "float32", "keras_history": ["block4b_dwconv2", 0, 0]}}], "kwargs": {"mask": null}}]}, {"class_name": "Activation", "config": {"name": "block4b_activation", "trainable": false, "dtype": "float32", "activation": "silu"}, "name": "block4b_activation", "inbound_nodes": [{"args": [{"class_name": "__keras_tensor__", "config": {"shape": [null, 19, 19, 448], "dtype": "float32", "keras_history": ["block4b_bn", 0, 0]}}], "kwargs": {}}]}, {"class_name": "GlobalAveragePooling2D", "config": {"name": "block4b_se_squeeze", "trainable": false, "dtype": "float32", "data_format": "channels_last", "keepdims": false}, "name": "block4b_se_squeeze", "inbound_nodes": [{"args": [{"class_name": "__keras_tensor__", "config": {"shape": [null, 19, 19, 448], "dtype": "float32", "keras_history": ["block4b_activation", 0, 0]}}], "kwargs": {}}]}, {"class_name": "Reshape", "config": {"name": "block4b_se_reshape", "trainable": false, "dtype": "float32", "target_shape": [1, 1, 448]}, "name": "block4b_se_reshape", "inbound_nodes": [{"args": [{"class_name": "__keras_tensor__", "config": {"shape": [null, 448], "dtype": "float32", "keras_history": ["block4b_se_squeeze", 0, 0]}}], "kwargs": {}}]}, {"class_name": "Conv2D", "config": {"name": "block4b_se_reduce", "trainable": false, "dtype": "float32", "filters": 28, "kernel_size": [1, 1], "strides": [1, 1], "padding": "same", "data_format": "channels_last", "dilation_rate": [1, 1], "groups": 1, "activation": "silu", "use_bias": true, "kernel_initializer": {"module": "keras.initializers", "class_name": "VarianceScaling", "config": {"scale": 2.0, "mode": "fan_out", "distribution": "truncated_normal", "seed": null}, "registered_name": null}, "bias_initializer": {"module": "keras.initializers", "class_name": "Zeros", "config": {}, "registered_name": null}, "kernel_regularizer": null, "bias_regularizer": null, "activity_regularizer": null, "kernel_constraint": null, "bias_constraint": null}, "name": "block4b_se_reduce", "inbound_nodes": [{"args": [{"class_name": "__keras_tensor__", "config": {"shape": [null, 1, 1, 448], "dtype": "float32", "keras_history": ["block4b_se_reshape", 0, 0]}}], "kwargs": {}}]}, {"class_name": "Conv2D", "config": {"name": "block4b_se_expand", "trainable": false, "dtype": "float32", "filters": 448, "kernel_size": [1, 1], "strides": [1, 1], "padding": "same", "data_format": "channels_last", "dilation_rate": [1, 1], "groups": 1, "activation": "sigmoid", "use_bias": true, "kernel_initializer": {"module": "keras.initializers", "class_name": "VarianceScaling", "config": {"scale": 2.0, "mode": "fan_out", "distribution": "truncated_normal", "seed": null}, "registered_name": null}, "bias_initializer": {"module": "keras.initializers", "class_name": "Zeros", "config": {}, "registered_name": null}, "kernel_regularizer": null, "bias_regularizer": null, "activity_regularizer": null, "kernel_constraint": null, "bias_constraint": null}, "name": "block4b_se_expand", "inbound_nodes": [{"args": [{"class_name": "__keras_tensor__", "config": {"shape": [null, 1, 1, 28], "dtype": "float32", "keras_history": ["block4b_se_reduce", 0, 0]}}], "kwargs": {}}]}, {"class_name": "Multiply", "config": {"name": "block4b_se_excite", "trainable": false, "dtype": "float32"}, "name": "block4b_se_excite", "inbound_nodes": [{"args": [[{"class_name": "__keras_tensor__", "config": {"shape": [null, 19, 19, 448], "dtype": "float32", "keras_history": ["block4b_activation", 0, 0]}}, {"class_name": "__keras_tensor__", "config": {"shape": [null, 1, 1, 448], "dtype": "float32", "keras_history": ["block4b_se_expand", 0, 0]}}]], "kwargs": {}}]}, {"class_name": "Conv2D", "config": {"name": "block4b_project_conv", "trainable": false, "dtype": "float32", "filters": 112, "kernel_size": [1, 1], "strides": [1, 1], "padding": "same", "data_format": "channels_last", "dilation_rate": [1, 1], "groups": 1, "activation": "linear", "use_bias": false, "kernel_initializer": {"module": "keras.initializers", "class_name": "VarianceScaling", "config": {"scale": 2.0, "mode": "fan_out", "distribution": "truncated_normal", "seed": null}, "registered_name": null}, "bias_initializer": {"module": "keras.initializers", "class_name": "Zeros", "config": {}, "registered_name": null}, "kernel_regularizer": null, "bias_regularizer": null, "activity_regularizer": null, "kernel_constraint": null, "bias_constraint": null}, "name": "block4b_project_conv", "inbound_nodes": [{"args": [{"class_name": "__keras_tensor__", "config": {"shape": [null, 19, 19, 448], "dtype": "float32", "keras_history": ["block4b_se_excite", 0, 0]}}], "kwargs": {}}]}, {"class_name": "BatchNormalization", "config": {"name": "block4b_project_bn", "trainable": false, "dtype": "float32", "axis": 3, "momentum": 0.9, "epsilon": 0.001, "center": true, "scale": true, "beta_initializer": {"module": "keras.initializers", "class_name": "Zeros", "config": {}, "registered_name": null}, "gamma_initializer": {"module": "keras.initializers", "class_name": "Ones", "config": {}, "registered_name": null}, "moving_mean_initializer": {"module": "keras.initializers", "class_name": "Zeros", "config": {}, "registered_name": null}, "moving_variance_initializer": {"module": "keras.initializers", "class_name": "Ones", "config": {}, "registered_name": null}, "beta_regularizer": null, "gamma_regularizer": null, "beta_constraint": null, "gamma_constraint": null, "synchronized": false}, "name": "block4b_project_bn", "inbound_nodes": [{"args": [{"class_name": "__keras_tensor__", "config": {"shape": [null, 19, 19, 112], "dtype": "float32", "keras_history": ["block4b_project_conv", 0, 0]}}], "kwargs": {"mask": null}}]}, {"class_name": "Dropout", "config": {"name": "block4b_drop", "trainable": false, "dtype": "float32", "rate": 0.08571428571428572, "seed": null, "noise_shape": [null, 1, 1, 1]}, "name": "block4b_drop", "inbound_nodes": [{"args": [{"class_name": "__keras_tensor__", "config": {"shape": [null, 19, 19, 112], "dtype": "float32", "keras_history": ["block4b_project_bn", 0, 0]}}], "kwargs": {"training": false}}]}, {"class_name": "Add", "config": {"name": "block4b_add", "trainable": false, "dtype": "float32"}, "name": "block4b_add", "inbound_nodes": [{"args": [[{"class_name": "__keras_tensor__", "config": {"shape": [null, 19, 19, 112], "dtype": "float32", "keras_history": ["block4b_drop", 0, 0]}}, {"class_name": "__keras_tensor__", "config": {"shape": [null, 19, 19, 112], "dtype": "float32", "keras_history": ["block4a_project_bn", 0, 0]}}]], "kwargs": {}}]}, {"class_name": "Conv2D", "config": {"name": "block4c_expand_conv", "trainable": false, "dtype": "float32", "filters": 448, "kernel_size": [1, 1], "strides": [1, 1], "padding": "same", "data_format": "channels_last", "dilation_rate": [1, 1], "groups": 1, "activation": "linear", "use_bias": false, "kernel_initializer": {"module": "keras.initializers", "class_name": "VarianceScaling", "config": {"scale": 2.0, "mode": "fan_out", "distribution": "truncated_normal", "seed": null}, "registered_name": null}, "bias_initializer": {"module": "keras.initializers", "class_name": "Zeros", "config": {}, "registered_name": null}, "kernel_regularizer": null, "bias_regularizer": null, "activity_regularizer": null, "kernel_constraint": null, "bias_constraint": null}, "name": "block4c_expand_conv", "inbound_nodes": [{"args": [{"class_name": "__keras_tensor__", "config": {"shape": [null, 19, 19, 112], "dtype": "float32", "keras_history": ["block4b_add", 0, 0]}}], "kwargs": {}}]}, {"class_name": "BatchNormalization", "config": {"name": "block4c_expand_bn", "trainable": false, "dtype": "float32", "axis": 3, "momentum": 0.9, "epsilon": 0.001, "center": true, "scale": true, "beta_initializer": {"module": "keras.initializers", "class_name": "Zeros", "config": {}, "registered_name": null}, "gamma_initializer": {"module": "keras.initializers", "class_name": "Ones", "config": {}, "registered_name": null}, "moving_mean_initializer": {"module": "keras.initializers", "class_name": "Zeros", "config": {}, "registered_name": null}, "moving_variance_initializer": {"module": "keras.initializers", "class_name": "Ones", "config": {}, "registered_name": null}, "beta_regularizer": null, "gamma_regularizer": null, "beta_constraint": null, "gamma_constraint": null, "synchronized": false}, "name": "block4c_expand_bn", "inbound_nodes": [{"args": [{"class_name": "__keras_tensor__", "config": {"shape": [null, 19, 19, 448], "dtype": "float32", "keras_history": ["block4c_expand_conv", 0, 0]}}], "kwargs": {"mask": null}}]}, {"class_name": "Activation", "config": {"name": "block4c_expand_activation", "trainable": false, "dtype": "float32", "activation": "silu"}, "name": "block4c_expand_activation", "inbound_nodes": [{"args": [{"class_name": "__keras_tensor__", "config": {"shape": [null, 19, 19, 448], "dtype": "float32", "keras_history": ["block4c_expand_bn", 0, 0]}}], "kwargs": {}}]}, {"class_name": "DepthwiseConv2D", "config": {"name": "block4c_dwconv2", "trainable": false, "dtype": "float32", "depth_multiplier": 1, "kernel_size": [3, 3], "strides": [1, 1], "padding": "same", "data_format": "channels_last", "dilation_rate": [1, 1], "activation": "linear", "use_bias": false, "depthwise_initializer": {"module": "keras.initializers", "class_name": "VarianceScaling", "config": {"scale": 2.0, "mode": "fan_out", "distribution": "truncated_normal", "seed": null}, "registered_name": null}, "bias_initializer": {"module": "keras.initializers", "class_name": "Zeros", "config": {}, "registered_name": null}, "depthwise_regularizer": null, "bias_regularizer": null, "activity_regularizer": null, "depthwise_constraint": null, "bias_constraint": null}, "name": "block4c_dwconv2", "inbound_nodes": [{"args": [{"class_name": "__keras_tensor__", "config": {"shape": [null, 19, 19, 448], "dtype": "float32", "keras_history": ["block4c_expand_activation", 0, 0]}}], "kwargs": {}}]}, {"class_name": "BatchNormalization", "config": {"name": "block4c_bn", "trainable": false, "dtype": "float32", "axis": 3, "momentum": 0.9, "epsilon": 0.001, "center": true, "scale": true, "beta_initializer": {"module": "keras.initializers", "class_name": "Zeros", "config": {}, "registered_name": null}, "gamma_initializer": {"module": "keras.initializers", "class_name": "Ones", "config": {}, "registered_name": null}, "moving_mean_initializer": {"module": "keras.initializers", "class_name": "Zeros", "config": {}, "registered_name": null}, "moving_variance_initializer": {"module": "keras.initializers", "class_name": "Ones", "config": {}, "registered_name": null}, "beta_regularizer": null, "gamma_regularizer": null, "beta_constraint": null, "gamma_constraint": null, "synchronized": false}, "name": "block4c_bn", "inbound_nodes": [{"args": [{"class_name": "__keras_tensor__", "config": {"shape": [null, 19, 19, 448], "dtype": "float32", "keras_history": ["block4c_dwconv2", 0, 0]}}], "kwargs": {"mask": null}}]}, {"class_name": "Activation", "config": {"name": "block4c_activation", "trainable": false, "dtype": "float32", "activation": "silu"}, "name": "block4c_activation", "inbound_nodes": [{"args": [{"class_name": "__keras_tensor__", "config": {"shape": [null, 19, 19, 448], "dtype": "float32", "keras_history": ["block4c_bn", 0, 0]}}], "kwargs": {}}]}, {"class_name": "GlobalAveragePooling2D", "config": {"name": "block4c_se_squeeze", "trainable": false, "dtype": "float32", "data_format": "channels_last", "keepdims": false}, "name": "block4c_se_squeeze", "inbound_nodes": [{"args": [{"class_name": "__keras_tensor__", "config": {"shape": [null, 19, 19, 448], "dtype": "float32", "keras_history": ["block4c_activation", 0, 0]}}], "kwargs": {}}]}, {"class_name": "Reshape", "config": {"name": "block4c_se_reshape", "trainable": false, "dtype": "float32", "target_shape": [1, 1, 448]}, "name": "block4c_se_reshape", "inbound_nodes": [{"args": [{"class_name": "__keras_tensor__", "config": {"shape": [null, 448], "dtype": "float32", "keras_history": ["block4c_se_squeeze", 0, 0]}}], "kwargs": {}}]}, {"class_name": "Conv2D", "config": {"name": "block4c_se_reduce", "trainable": false, "dtype": "float32", "filters": 28, "kernel_size": [1, 1], "strides": [1, 1], "padding": "same", "data_format": "channels_last", "dilation_rate": [1, 1], "groups": 1, "activation": "silu", "use_bias": true, "kernel_initializer": {"module": "keras.initializers", "class_name": "VarianceScaling", "config": {"scale": 2.0, "mode": "fan_out", "distribution": "truncated_normal", "seed": null}, "registered_name": null}, "bias_initializer": {"module": "keras.initializers", "class_name": "Zeros", "config": {}, "registered_name": null}, "kernel_regularizer": null, "bias_regularizer": null, "activity_regularizer": null, "kernel_constraint": null, "bias_constraint": null}, "name": "block4c_se_reduce", "inbound_nodes": [{"args": [{"class_name": "__keras_tensor__", "config": {"shape": [null, 1, 1, 448], "dtype": "float32", "keras_history": ["block4c_se_reshape", 0, 0]}}], "kwargs": {}}]}, {"class_name": "Conv2D", "config": {"name": "block4c_se_expand", "trainable": false, "dtype": "float32", "filters": 448, "kernel_size": [1, 1], "strides": [1, 1], "padding": "same", "data_format": "channels_last", "dilation_rate": [1, 1], "groups": 1, "activation": "sigmoid", "use_bias": true, "kernel_initializer": {"module": "keras.initializers", "class_name": "VarianceScaling", "config": {"scale": 2.0, "mode": "fan_out", "distribution": "truncated_normal", "seed": null}, "registered_name": null}, "bias_initializer": {"module": "keras.initializers", "class_name": "Zeros", "config": {}, "registered_name": null}, "kernel_regularizer": null, "bias_regularizer": null, "activity_regularizer": null, "kernel_constraint": null, "bias_constraint": null}, "name": "block4c_se_expand", "inbound_nodes": [{"args": [{"class_name": "__keras_tensor__", "config": {"shape": [null, 1, 1, 28], "dtype": "float32", "keras_history": ["block4c_se_reduce", 0, 0]}}], "kwargs": {}}]}, {"class_name": "Multiply", "config": {"name": "block4c_se_excite", "trainable": false, "dtype": "float32"}, "name": "block4c_se_excite", "inbound_nodes": [{"args": [[{"class_name": "__keras_tensor__", "config": {"shape": [null, 19, 19, 448], "dtype": "float32", "keras_history": ["block4c_activation", 0, 0]}}, {"class_name": "__keras_tensor__", "config": {"shape": [null, 1, 1, 448], "dtype": "float32", "keras_history": ["block4c_se_expand", 0, 0]}}]], "kwargs": {}}]}, {"class_name": "Conv2D", "config": {"name": "block4c_project_conv", "trainable": false, "dtype": "float32", "filters": 112, "kernel_size": [1, 1], "strides": [1, 1], "padding": "same", "data_format": "channels_last", "dilation_rate": [1, 1], "groups": 1, "activation": "linear", "use_bias": false, "kernel_initializer": {"module": "keras.initializers", "class_name": "VarianceScaling", "config": {"scale": 2.0, "mode": "fan_out", "distribution": "truncated_normal", "seed": null}, "registered_name": null}, "bias_initializer": {"module": "keras.initializers", "class_name": "Zeros", "config": {}, "registered_name": null}, "kernel_regularizer": null, "bias_regularizer": null, "activity_regularizer": null, "kernel_constraint": null, "bias_constraint": null}, "name": "block4c_project_conv", "inbound_nodes": [{"args": [{"class_name": "__keras_tensor__", "config": {"shape": [null, 19, 19, 448], "dtype": "float32", "keras_history": ["block4c_se_excite", 0, 0]}}], "kwargs": {}}]}, {"class_name": "BatchNormalization", "config": {"name": "block4c_project_bn", "trainable": false, "dtype": "float32", "axis": 3, "momentum": 0.9, "epsilon": 0.001, "center": true, "scale": true, "beta_initializer": {"module": "keras.initializers", "class_name": "Zeros", "config": {}, "registered_name": null}, "gamma_initializer": {"module": "keras.initializers", "class_name": "Ones", "config": {}, "registered_name": null}, "moving_mean_initializer": {"module": "keras.initializers", "class_name": "Zeros", "config": {}, "registered_name": null}, "moving_variance_initializer": {"module": "keras.initializers", "class_name": "Ones", "config": {}, "registered_name": null}, "beta_regularizer": null, "gamma_regularizer": null, "beta_constraint": null, "gamma_constraint": null, "synchronized": false}, "name": "block4c_project_bn", "inbound_nodes": [{"args": [{"class_name": "__keras_tensor__", "config": {"shape": [null, 19, 19, 112], "dtype": "float32", "keras_history": ["block4c_project_conv", 0, 0]}}], "kwargs": {"mask": null}}]}, {"class_name": "Dropout", "config": {"name": "block4c_drop", "trainable": false, "dtype": "float32", "rate": 0.09523809523809523, "seed": null, "noise_shape": [null, 1, 1, 1]}, "name": "block4c_drop", "inbound_nodes": [{"args": [{"class_name": "__keras_tensor__", "config": {"shape": [null, 19, 19, 112], "dtype": "float32", "keras_history": ["block4c_project_bn", 0, 0]}}], "kwargs": {"training": false}}]}, {"class_name": "Add", "config": {"name": "block4c_add", "trainable": false, "dtype": "float32"}, "name": "block4c_add", "inbound_nodes": [{"args": [[{"class_name": "__keras_tensor__", "config": {"shape": [null, 19, 19, 112], "dtype": "float32", "keras_history": ["block4c_drop", 0, 0]}}, {"class_name": "__keras_tensor__", "config": {"shape": [null, 19, 19, 112], "dtype": "float32", "keras_history": ["block4b_add", 0, 0]}}]], "kwargs": {}}]}, {"class_name": "Conv2D", "config": {"name": "block4d_expand_conv", "trainable": false, "dtype": "float32", "filters": 448, "kernel_size": [1, 1], "strides": [1, 1], "padding": "same", "data_format": "channels_last", "dilation_rate": [1, 1], "groups": 1, "activation": "linear", "use_bias": false, "kernel_initializer": {"module": "keras.initializers", "class_name": "VarianceScaling", "config": {"scale": 2.0, "mode": "fan_out", "distribution": "truncated_normal", "seed": null}, "registered_name": null}, "bias_initializer": {"module": "keras.initializers", "class_name": "Zeros", "config": {}, "registered_name": null}, "kernel_regularizer": null, "bias_regularizer": null, "activity_regularizer": null, "kernel_constraint": null, "bias_constraint": null}, "name": "block4d_expand_conv", "inbound_nodes": [{"args": [{"class_name": "__keras_tensor__", "config": {"shape": [null, 19, 19, 112], "dtype": "float32", "keras_history": ["block4c_add", 0, 0]}}], "kwargs": {}}]}, {"class_name": "BatchNormalization", "config": {"name": "block4d_expand_bn", "trainable": false, "dtype": "float32", "axis": 3, "momentum": 0.9, "epsilon": 0.001, "center": true, "scale": true, "beta_initializer": {"module": "keras.initializers", "class_name": "Zeros", "config": {}, "registered_name": null}, "gamma_initializer": {"module": "keras.initializers", "class_name": "Ones", "config": {}, "registered_name": null}, "moving_mean_initializer": {"module": "keras.initializers", "class_name": "Zeros", "config": {}, "registered_name": null}, "moving_variance_initializer": {"module": "keras.initializers", "class_name": "Ones", "config": {}, "registered_name": null}, "beta_regularizer": null, "gamma_regularizer": null, "beta_constraint": null, "gamma_constraint": null, "synchronized": false}, "name": "block4d_expand_bn", "inbound_nodes": [{"args": [{"class_name": "__keras_tensor__", "config": {"shape": [null, 19, 19, 448], "dtype": "float32", "keras_history": ["block4d_expand_conv", 0, 0]}}], "kwargs": {"mask": null}}]}, {"class_name": "Activation", "config": {"name": "block4d_expand_activation", "trainable": false, "dtype": "float32", "activation": "silu"}, "name": "block4d_expand_activation", "inbound_nodes": [{"args": [{"class_name": "__keras_tensor__", "config": {"shape": [null, 19, 19, 448], "dtype": "float32", "keras_history": ["block4d_expand_bn", 0, 0]}}], "kwargs": {}}]}, {"class_name": "DepthwiseConv2D", "config": {"name": "block4d_dwconv2", "trainable": false, "dtype": "float32", "depth_multiplier": 1, "kernel_size": [3, 3], "strides": [1, 1], "padding": "same", "data_format": "channels_last", "dilation_rate": [1, 1], "activation": "linear", "use_bias": false, "depthwise_initializer": {"module": "keras.initializers", "class_name": "VarianceScaling", "config": {"scale": 2.0, "mode": "fan_out", "distribution": "truncated_normal", "seed": null}, "registered_name": null}, "bias_initializer": {"module": "keras.initializers", "class_name": "Zeros", "config": {}, "registered_name": null}, "depthwise_regularizer": null, "bias_regularizer": null, "activity_regularizer": null, "depthwise_constraint": null, "bias_constraint": null}, "name": "block4d_dwconv2", "inbound_nodes": [{"args": [{"class_name": "__keras_tensor__", "config": {"shape": [null, 19, 19, 448], "dtype": "float32", "keras_history": ["block4d_expand_activation", 0, 0]}}], "kwargs": {}}]}, {"class_name": "BatchNormalization", "config": {"name": "block4d_bn", "trainable": false, "dtype": "float32", "axis": 3, "momentum": 0.9, "epsilon": 0.001, "center": true, "scale": true, "beta_initializer": {"module": "keras.initializers", "class_name": "Zeros", "config": {}, "registered_name": null}, "gamma_initializer": {"module": "keras.initializers", "class_name": "Ones", "config": {}, "registered_name": null}, "moving_mean_initializer": {"module": "keras.initializers", "class_name": "Zeros", "config": {}, "registered_name": null}, "moving_variance_initializer": {"module": "keras.initializers", "class_name": "Ones", "config": {}, "registered_name": null}, "beta_regularizer": null, "gamma_regularizer": null, "beta_constraint": null, "gamma_constraint": null, "synchronized": false}, "name": "block4d_bn", "inbound_nodes": [{"args": [{"class_name": "__keras_tensor__", "config": {"shape": [null, 19, 19, 448], "dtype": "float32", "keras_history": ["block4d_dwconv2", 0, 0]}}], "kwargs": {"mask": null}}]}, {"class_name": "Activation", "config": {"name": "block4d_activation", "trainable": false, "dtype": "float32", "activation": "silu"}, "name": "block4d_activation", "inbound_nodes": [{"args": [{"class_name": "__keras_tensor__", "config": {"shape": [null, 19, 19, 448], "dtype": "float32", "keras_history": ["block4d_bn", 0, 0]}}], "kwargs": {}}]}, {"class_name": "GlobalAveragePooling2D", "config": {"name": "block4d_se_squeeze", "trainable": false, "dtype": "float32", "data_format": "channels_last", "keepdims": false}, "name": "block4d_se_squeeze", "inbound_nodes": [{"args": [{"class_name": "__keras_tensor__", "config": {"shape": [null, 19, 19, 448], "dtype": "float32", "keras_history": ["block4d_activation", 0, 0]}}], "kwargs": {}}]}, {"class_name": "Reshape", "config": {"name": "block4d_se_reshape", "trainable": false, "dtype": "float32", "target_shape": [1, 1, 448]}, "name": "block4d_se_reshape", "inbound_nodes": [{"args": [{"class_name": "__keras_tensor__", "config": {"shape": [null, 448], "dtype": "float32", "keras_history": ["block4d_se_squeeze", 0, 0]}}], "kwargs": {}}]}, {"class_name": "Conv2D", "config": {"name": "block4d_se_reduce", "trainable": false, "dtype": "float32", "filters": 28, "kernel_size": [1, 1], "strides": [1, 1], "padding": "same", "data_format": "channels_last", "dilation_rate": [1, 1], "groups": 1, "activation": "silu", "use_bias": true, "kernel_initializer": {"module": "keras.initializers", "class_name": "VarianceScaling", "config": {"scale": 2.0, "mode": "fan_out", "distribution": "truncated_normal", "seed": null}, "registered_name": null}, "bias_initializer": {"module": "keras.initializers", "class_name": "Zeros", "config": {}, "registered_name": null}, "kernel_regularizer": null, "bias_regularizer": null, "activity_regularizer": null, "kernel_constraint": null, "bias_constraint": null}, "name": "block4d_se_reduce", "inbound_nodes": [{"args": [{"class_name": "__keras_tensor__", "config": {"shape": [null, 1, 1, 448], "dtype": "float32", "keras_history": ["block4d_se_reshape", 0, 0]}}], "kwargs": {}}]}, {"class_name": "Conv2D", "config": {"name": "block4d_se_expand", "trainable": false, "dtype": "float32", "filters": 448, "kernel_size": [1, 1], "strides": [1, 1], "padding": "same", "data_format": "channels_last", "dilation_rate": [1, 1], "groups": 1, "activation": "sigmoid", "use_bias": true, "kernel_initializer": {"module": "keras.initializers", "class_name": "VarianceScaling", "config": {"scale": 2.0, "mode": "fan_out", "distribution": "truncated_normal", "seed": null}, "registered_name": null}, "bias_initializer": {"module": "keras.initializers", "class_name": "Zeros", "config": {}, "registered_name": null}, "kernel_regularizer": null, "bias_regularizer": null, "activity_regularizer": null, "kernel_constraint": null, "bias_constraint": null}, "name": "block4d_se_expand", "inbound_nodes": [{"args": [{"class_name": "__keras_tensor__", "config": {"shape": [null, 1, 1, 28], "dtype": "float32", "keras_history": ["block4d_se_reduce", 0, 0]}}], "kwargs": {}}]}, {"class_name": "Multiply", "config": {"name": "block4d_se_excite", "trainable": false, "dtype": "float32"}, "name": "block4d_se_excite", "inbound_nodes": [{"args": [[{"class_name": "__keras_tensor__", "config": {"shape": [null, 19, 19, 448], "dtype": "float32", "keras_history": ["block4d_activation", 0, 0]}}, {"class_name": "__keras_tensor__", "config": {"shape": [null, 1, 1, 448], "dtype": "float32", "keras_history": ["block4d_se_expand", 0, 0]}}]], "kwargs": {}}]}, {"class_name": "Conv2D", "config": {"name": "block4d_project_conv", "trainable": false, "dtype": "float32", "filters": 112, "kernel_size": [1, 1], "strides": [1, 1], "padding": "same", "data_format": "channels_last", "dilation_rate": [1, 1], "groups": 1, "activation": "linear", "use_bias": false, "kernel_initializer": {"module": "keras.initializers", "class_name": "VarianceScaling", "config": {"scale": 2.0, "mode": "fan_out", "distribution": "truncated_normal", "seed": null}, "registered_name": null}, "bias_initializer": {"module": "keras.initializers", "class_name": "Zeros", "config": {}, "registered_name": null}, "kernel_regularizer": null, "bias_regularizer": null, "activity_regularizer": null, "kernel_constraint": null, "bias_constraint": null}, "name": "block4d_project_conv", "inbound_nodes": [{"args": [{"class_name": "__keras_tensor__", "config": {"shape": [null, 19, 19, 448], "dtype": "float32", "keras_history": ["block4d_se_excite", 0, 0]}}], "kwargs": {}}]}, {"class_name": "BatchNormalization", "config": {"name": "block4d_project_bn", "trainable": false, "dtype": "float32", "axis": 3, "momentum": 0.9, "epsilon": 0.001, "center": true, "scale": true, "beta_initializer": {"module": "keras.initializers", "class_name": "Zeros", "config": {}, "registered_name": null}, "gamma_initializer": {"module": "keras.initializers", "class_name": "Ones", "config": {}, "registered_name": null}, "moving_mean_initializer": {"module": "keras.initializers", "class_name": "Zeros", "config": {}, "registered_name": null}, "moving_variance_initializer": {"module": "keras.initializers", "class_name": "Ones", "config": {}, "registered_name": null}, "beta_regularizer": null, "gamma_regularizer": null, "beta_constraint": null, "gamma_constraint": null, "synchronized": false}, "name": "block4d_project_bn", "inbound_nodes": [{"args": [{"class_name": "__keras_tensor__", "config": {"shape": [null, 19, 19, 112], "dtype": "float32", "keras_history": ["block4d_project_conv", 0, 0]}}], "kwargs": {"mask": null}}]}, {"class_name": "Dropout", "config": {"name": "block4d_drop", "trainable": false, "dtype": "float32", "rate": 0.10476190476190476, "seed": null, "noise_shape": [null, 1, 1, 1]}, "name": "block4d_drop", "inbound_nodes": [{"args": [{"class_name": "__keras_tensor__", "config": {"shape": [null, 19, 19, 112], "dtype": "float32", "keras_history": ["block4d_project_bn", 0, 0]}}], "kwargs": {"training": false}}]}, {"class_name": "Add", "config": {"name": "block4d_add", "trainable": false, "dtype": "float32"}, "name": "block4d_add", "inbound_nodes": [{"args": [[{"class_name": "__keras_tensor__", "config": {"shape": [null, 19, 19, 112], "dtype": "float32", "keras_history": ["block4d_drop", 0, 0]}}, {"class_name": "__keras_tensor__", "config": {"shape": [null, 19, 19, 112], "dtype": "float32", "keras_history": ["block4c_add", 0, 0]}}]], "kwargs": {}}]}, {"class_name": "Conv2D", "config": {"name": "block4e_expand_conv", "trainable": false, "dtype": "float32", "filters": 448, "kernel_size": [1, 1], "strides": [1, 1], "padding": "same", "data_format": "channels_last", "dilation_rate": [1, 1], "groups": 1, "activation": "linear", "use_bias": false, "kernel_initializer": {"module": "keras.initializers", "class_name": "VarianceScaling", "config": {"scale": 2.0, "mode": "fan_out", "distribution": "truncated_normal", "seed": null}, "registered_name": null}, "bias_initializer": {"module": "keras.initializers", "class_name": "Zeros", "config": {}, "registered_name": null}, "kernel_regularizer": null, "bias_regularizer": null, "activity_regularizer": null, "kernel_constraint": null, "bias_constraint": null}, "name": "block4e_expand_conv", "inbound_nodes": [{"args": [{"class_name": "__keras_tensor__", "config": {"shape": [null, 19, 19, 112], "dtype": "float32", "keras_history": ["block4d_add", 0, 0]}}], "kwargs": {}}]}, {"class_name": "BatchNormalization", "config": {"name": "block4e_expand_bn", "trainable": false, "dtype": "float32", "axis": 3, "momentum": 0.9, "epsilon": 0.001, "center": true, "scale": true, "beta_initializer": {"module": "keras.initializers", "class_name": "Zeros", "config": {}, "registered_name": null}, "gamma_initializer": {"module": "keras.initializers", "class_name": "Ones", "config": {}, "registered_name": null}, "moving_mean_initializer": {"module": "keras.initializers", "class_name": "Zeros", "config": {}, "registered_name": null}, "moving_variance_initializer": {"module": "keras.initializers", "class_name": "Ones", "config": {}, "registered_name": null}, "beta_regularizer": null, "gamma_regularizer": null, "beta_constraint": null, "gamma_constraint": null, "synchronized": false}, "name": "block4e_expand_bn", "inbound_nodes": [{"args": [{"class_name": "__keras_tensor__", "config": {"shape": [null, 19, 19, 448], "dtype": "float32", "keras_history": ["block4e_expand_conv", 0, 0]}}], "kwargs": {"mask": null}}]}, {"class_name": "Activation", "config": {"name": "block4e_expand_activation", "trainable": false, "dtype": "float32", "activation": "silu"}, "name": "block4e_expand_activation", "inbound_nodes": [{"args": [{"class_name": "__keras_tensor__", "config": {"shape": [null, 19, 19, 448], "dtype": "float32", "keras_history": ["block4e_expand_bn", 0, 0]}}], "kwargs": {}}]}, {"class_name": "DepthwiseConv2D", "config": {"name": "block4e_dwconv2", "trainable": false, "dtype": "float32", "depth_multiplier": 1, "kernel_size": [3, 3], "strides": [1, 1], "padding": "same", "data_format": "channels_last", "dilation_rate": [1, 1], "activation": "linear", "use_bias": false, "depthwise_initializer": {"module": "keras.initializers", "class_name": "VarianceScaling", "config": {"scale": 2.0, "mode": "fan_out", "distribution": "truncated_normal", "seed": null}, "registered_name": null}, "bias_initializer": {"module": "keras.initializers", "class_name": "Zeros", "config": {}, "registered_name": null}, "depthwise_regularizer": null, "bias_regularizer": null, "activity_regularizer": null, "depthwise_constraint": null, "bias_constraint": null}, "name": "block4e_dwconv2", "inbound_nodes": [{"args": [{"class_name": "__keras_tensor__", "config": {"shape": [null, 19, 19, 448], "dtype": "float32", "keras_history": ["block4e_expand_activation", 0, 0]}}], "kwargs": {}}]}, {"class_name": "BatchNormalization", "config": {"name": "block4e_bn", "trainable": false, "dtype": "float32", "axis": 3, "momentum": 0.9, "epsilon": 0.001, "center": true, "scale": true, "beta_initializer": {"module": "keras.initializers", "class_name": "Zeros", "config": {}, "registered_name": null}, "gamma_initializer": {"module": "keras.initializers", "class_name": "Ones", "config": {}, "registered_name": null}, "moving_mean_initializer": {"module": "keras.initializers", "class_name": "Zeros", "config": {}, "registered_name": null}, "moving_variance_initializer": {"module": "keras.initializers", "class_name": "Ones", "config": {}, "registered_name": null}, "beta_regularizer": null, "gamma_regularizer": null, "beta_constraint": null, "gamma_constraint": null, "synchronized": false}, "name": "block4e_bn", "inbound_nodes": [{"args": [{"class_name": "__keras_tensor__", "config": {"shape": [null, 19, 19, 448], "dtype": "float32", "keras_history": ["block4e_dwconv2", 0, 0]}}], "kwargs": {"mask": null}}]}, {"class_name": "Activation", "config": {"name": "block4e_activation", "trainable": false, "dtype": "float32", "activation": "silu"}, "name": "block4e_activation", "inbound_nodes": [{"args": [{"class_name": "__keras_tensor__", "config": {"shape": [null, 19, 19, 448], "dtype": "float32", "keras_history": ["block4e_bn", 0, 0]}}], "kwargs": {}}]}, {"class_name": "GlobalAveragePooling2D", "config": {"name": "block4e_se_squeeze", "trainable": false, "dtype": "float32", "data_format": "channels_last", "keepdims": false}, "name": "block4e_se_squeeze", "inbound_nodes": [{"args": [{"class_name": "__keras_tensor__", "config": {"shape": [null, 19, 19, 448], "dtype": "float32", "keras_history": ["block4e_activation", 0, 0]}}], "kwargs": {}}]}, {"class_name": "Reshape", "config": {"name": "block4e_se_reshape", "trainable": false, "dtype": "float32", "target_shape": [1, 1, 448]}, "name": "block4e_se_reshape", "inbound_nodes": [{"args": [{"class_name": "__keras_tensor__", "config": {"shape": [null, 448], "dtype": "float32", "keras_history": ["block4e_se_squeeze", 0, 0]}}], "kwargs": {}}]}, {"class_name": "Conv2D", "config": {"name": "block4e_se_reduce", "trainable": false, "dtype": "float32", "filters": 28, "kernel_size": [1, 1], "strides": [1, 1], "padding": "same", "data_format": "channels_last", "dilation_rate": [1, 1], "groups": 1, "activation": "silu", "use_bias": true, "kernel_initializer": {"module": "keras.initializers", "class_name": "VarianceScaling", "config": {"scale": 2.0, "mode": "fan_out", "distribution": "truncated_normal", "seed": null}, "registered_name": null}, "bias_initializer": {"module": "keras.initializers", "class_name": "Zeros", "config": {}, "registered_name": null}, "kernel_regularizer": null, "bias_regularizer": null, "activity_regularizer": null, "kernel_constraint": null, "bias_constraint": null}, "name": "block4e_se_reduce", "inbound_nodes": [{"args": [{"class_name": "__keras_tensor__", "config": {"shape": [null, 1, 1, 448], "dtype": "float32", "keras_history": ["block4e_se_reshape", 0, 0]}}], "kwargs": {}}]}, {"class_name": "Conv2D", "config": {"name": "block4e_se_expand", "trainable": false, "dtype": "float32", "filters": 448, "kernel_size": [1, 1], "strides": [1, 1], "padding": "same", "data_format": "channels_last", "dilation_rate": [1, 1], "groups": 1, "activation": "sigmoid", "use_bias": true, "kernel_initializer": {"module": "keras.initializers", "class_name": "VarianceScaling", "config": {"scale": 2.0, "mode": "fan_out", "distribution": "truncated_normal", "seed": null}, "registered_name": null}, "bias_initializer": {"module": "keras.initializers", "class_name": "Zeros", "config": {}, "registered_name": null}, "kernel_regularizer": null, "bias_regularizer": null, "activity_regularizer": null, "kernel_constraint": null, "bias_constraint": null}, "name": "block4e_se_expand", "inbound_nodes": [{"args": [{"class_name": "__keras_tensor__", "config": {"shape": [null, 1, 1, 28], "dtype": "float32", "keras_history": ["block4e_se_reduce", 0, 0]}}], "kwargs": {}}]}, {"class_name": "Multiply", "config": {"name": "block4e_se_excite", "trainable": false, "dtype": "float32"}, "name": "block4e_se_excite", "inbound_nodes": [{"args": [[{"class_name": "__keras_tensor__", "config": {"shape": [null, 19, 19, 448], "dtype": "float32", "keras_history": ["block4e_activation", 0, 0]}}, {"class_name": "__keras_tensor__", "config": {"shape": [null, 1, 1, 448], "dtype": "float32", "keras_history": ["block4e_se_expand", 0, 0]}}]], "kwargs": {}}]}, {"class_name": "Conv2D", "config": {"name": "block4e_project_conv", "trainable": false, "dtype": "float32", "filters": 112, "kernel_size": [1, 1], "strides": [1, 1], "padding": "same", "data_format": "channels_last", "dilation_rate": [1, 1], "groups": 1, "activation": "linear", "use_bias": false, "kernel_initializer": {"module": "keras.initializers", "class_name": "VarianceScaling", "config": {"scale": 2.0, "mode": "fan_out", "distribution": "truncated_normal", "seed": null}, "registered_name": null}, "bias_initializer": {"module": "keras.initializers", "class_name": "Zeros", "config": {}, "registered_name": null}, "kernel_regularizer": null, "bias_regularizer": null, "activity_regularizer": null, "kernel_constraint": null, "bias_constraint": null}, "name": "block4e_project_conv", "inbound_nodes": [{"args": [{"class_name": "__keras_tensor__", "config": {"shape": [null, 19, 19, 448], "dtype": "float32", "keras_history": ["block4e_se_excite", 0, 0]}}], "kwargs": {}}]}, {"class_name": "BatchNormalization", "config": {"name": "block4e_project_bn", "trainable": false, "dtype": "float32", "axis": 3, "momentum": 0.9, "epsilon": 0.001, "center": true, "scale": true, "beta_initializer": {"module": "keras.initializers", "class_name": "Zeros", "config": {}, "registered_name": null}, "gamma_initializer": {"module": "keras.initializers", "class_name": "Ones", "config": {}, "registered_name": null}, "moving_mean_initializer": {"module": "keras.initializers", "class_name": "Zeros", "config": {}, "registered_name": null}, "moving_variance_initializer": {"module": "keras.initializers", "class_name": "Ones", "config": {}, "registered_name": null}, "beta_regularizer": null, "gamma_regularizer": null, "beta_constraint": null, "gamma_constraint": null, "synchronized": false}, "name": "block4e_project_bn", "inbound_nodes": [{"args": [{"class_name": "__keras_tensor__", "config": {"shape": [null, 19, 19, 112], "dtype": "float32", "keras_history": ["block4e_project_conv", 0, 0]}}], "kwargs": {"mask": null}}]}, {"class_name": "Dropout", "config": {"name": "block4e_drop", "trainable": false, "dtype": "float32", "rate": 0.1142857142857143, "seed": null, "noise_shape": [null, 1, 1, 1]}, "name": "block4e_drop", "inbound_nodes": [{"args": [{"class_name": "__keras_tensor__", "config": {"shape": [null, 19, 19, 112], "dtype": "float32", "keras_history": ["block4e_project_bn", 0, 0]}}], "kwargs": {"training": false}}]}, {"class_name": "Add", "config": {"name": "block4e_add", "trainable": false, "dtype": "float32"}, "name": "block4e_add", "inbound_nodes": [{"args": [[{"class_name": "__keras_tensor__", "config": {"shape": [null, 19, 19, 112], "dtype": "float32", "keras_history": ["block4e_drop", 0, 0]}}, {"class_name": "__keras_tensor__", "config": {"shape": [null, 19, 19, 112], "dtype": "float32", "keras_history": ["block4d_add", 0, 0]}}]], "kwargs": {}}]}, {"class_name": "Conv2D", "config": {"name": "block5a_expand_conv", "trainable": false, "dtype": "float32", "filters": 672, "kernel_size": [1, 1], "strides": [1, 1], "padding": "same", "data_format": "channels_last", "dilation_rate": [1, 1], "groups": 1, "activation": "linear", "use_bias": false, "kernel_initializer": {"module": "keras.initializers", "class_name": "VarianceScaling", "config": {"scale": 2.0, "mode": "fan_out", "distribution": "truncated_normal", "seed": null}, "registered_name": null}, "bias_initializer": {"module": "keras.initializers", "class_name": "Zeros", "config": {}, "registered_name": null}, "kernel_regularizer": null, "bias_regularizer": null, "activity_regularizer": null, "kernel_constraint": null, "bias_constraint": null}, "name": "block5a_expand_conv", "inbound_nodes": [{"args": [{"class_name": "__keras_tensor__", "config": {"shape": [null, 19, 19, 112], "dtype": "float32", "keras_history": ["block4e_add", 0, 0]}}], "kwargs": {}}]}, {"class_name": "BatchNormalization", "config": {"name": "block5a_expand_bn", "trainable": false, "dtype": "float32", "axis": 3, "momentum": 0.9, "epsilon": 0.001, "center": true, "scale": true, "beta_initializer": {"module": "keras.initializers", "class_name": "Zeros", "config": {}, "registered_name": null}, "gamma_initializer": {"module": "keras.initializers", "class_name": "Ones", "config": {}, "registered_name": null}, "moving_mean_initializer": {"module": "keras.initializers", "class_name": "Zeros", "config": {}, "registered_name": null}, "moving_variance_initializer": {"module": "keras.initializers", "class_name": "Ones", "config": {}, "registered_name": null}, "beta_regularizer": null, "gamma_regularizer": null, "beta_constraint": null, "gamma_constraint": null, "synchronized": false}, "name": "block5a_expand_bn", "inbound_nodes": [{"args": [{"class_name": "__keras_tensor__", "config": {"shape": [null, 19, 19, 672], "dtype": "float32", "keras_history": ["block5a_expand_conv", 0, 0]}}], "kwargs": {"mask": null}}]}, {"class_name": "Activation", "config": {"name": "block5a_expand_activation", "trainable": false, "dtype": "float32", "activation": "silu"}, "name": "block5a_expand_activation", "inbound_nodes": [{"args": [{"class_name": "__keras_tensor__", "config": {"shape": [null, 19, 19, 672], "dtype": "float32", "keras_history": ["block5a_expand_bn", 0, 0]}}], "kwargs": {}}]}, {"class_name": "DepthwiseConv2D", "config": {"name": "block5a_dwconv2", "trainable": false, "dtype": "float32", "depth_multiplier": 1, "kernel_size": [3, 3], "strides": [1, 1], "padding": "same", "data_format": "channels_last", "dilation_rate": [1, 1], "activation": "linear", "use_bias": false, "depthwise_initializer": {"module": "keras.initializers", "class_name": "VarianceScaling", "config": {"scale": 2.0, "mode": "fan_out", "distribution": "truncated_normal", "seed": null}, "registered_name": null}, "bias_initializer": {"module": "keras.initializers", "class_name": "Zeros", "config": {}, "registered_name": null}, "depthwise_regularizer": null, "bias_regularizer": null, "activity_regularizer": null, "depthwise_constraint": null, "bias_constraint": null}, "name": "block5a_dwconv2", "inbound_nodes": [{"args": [{"class_name": "__keras_tensor__", "config": {"shape": [null, 19, 19, 672], "dtype": "float32", "keras_history": ["block5a_expand_activation", 0, 0]}}], "kwargs": {}}]}, {"class_name": "BatchNormalization", "config": {"name": "block5a_bn", "trainable": false, "dtype": "float32", "axis": 3, "momentum": 0.9, "epsilon": 0.001, "center": true, "scale": true, "beta_initializer": {"module": "keras.initializers", "class_name": "Zeros", "config": {}, "registered_name": null}, "gamma_initializer": {"module": "keras.initializers", "class_name": "Ones", "config": {}, "registered_name": null}, "moving_mean_initializer": {"module": "keras.initializers", "class_name": "Zeros", "config": {}, "registered_name": null}, "moving_variance_initializer": {"module": "keras.initializers", "class_name": "Ones", "config": {}, "registered_name": null}, "beta_regularizer": null, "gamma_regularizer": null, "beta_constraint": null, "gamma_constraint": null, "synchronized": false}, "name": "block5a_bn", "inbound_nodes": [{"args": [{"class_name": "__keras_tensor__", "config": {"shape": [null, 19, 19, 672], "dtype": "float32", "keras_history": ["block5a_dwconv2", 0, 0]}}], "kwargs": {"mask": null}}]}, {"class_name": "Activation", "config": {"name": "block5a_activation", "trainable": false, "dtype": "float32", "activation": "silu"}, "name": "block5a_activation", "inbound_nodes": [{"args": [{"class_name": "__keras_tensor__", "config": {"shape": [null, 19, 19, 672], "dtype": "float32", "keras_history": ["block5a_bn", 0, 0]}}], "kwargs": {}}]}, {"class_name": "GlobalAveragePooling2D", "config": {"name": "block5a_se_squeeze", "trainable": false, "dtype": "float32", "data_format": "channels_last", "keepdims": false}, "name": "block5a_se_squeeze", "inbound_nodes": [{"args": [{"class_name": "__keras_tensor__", "config": {"shape": [null, 19, 19, 672], "dtype": "float32", "keras_history": ["block5a_activation", 0, 0]}}], "kwargs": {}}]}, {"class_name": "Reshape", "config": {"name": "block5a_se_reshape", "trainable": false, "dtype": "float32", "target_shape": [1, 1, 672]}, "name": "block5a_se_reshape", "inbound_nodes": [{"args": [{"class_name": "__keras_tensor__", "config": {"shape": [null, 672], "dtype": "float32", "keras_history": ["block5a_se_squeeze", 0, 0]}}], "kwargs": {}}]}, {"class_name": "Conv2D", "config": {"name": "block5a_se_reduce", "trainable": false, "dtype": "float32", "filters": 28, "kernel_size": [1, 1], "strides": [1, 1], "padding": "same", "data_format": "channels_last", "dilation_rate": [1, 1], "groups": 1, "activation": "silu", "use_bias": true, "kernel_initializer": {"module": "keras.initializers", "class_name": "VarianceScaling", "config": {"scale": 2.0, "mode": "fan_out", "distribution": "truncated_normal", "seed": null}, "registered_name": null}, "bias_initializer": {"module": "keras.initializers", "class_name": "Zeros", "config": {}, "registered_name": null}, "kernel_regularizer": null, "bias_regularizer": null, "activity_regularizer": null, "kernel_constraint": null, "bias_constraint": null}, "name": "block5a_se_reduce", "inbound_nodes": [{"args": [{"class_name": "__keras_tensor__", "config": {"shape": [null, 1, 1, 672], "dtype": "float32", "keras_history": ["block5a_se_reshape", 0, 0]}}], "kwargs": {}}]}, {"class_name": "Conv2D", "config": {"name": "block5a_se_expand", "trainable": false, "dtype": "float32", "filters": 672, "kernel_size": [1, 1], "strides": [1, 1], "padding": "same", "data_format": "channels_last", "dilation_rate": [1, 1], "groups": 1, "activation": "sigmoid", "use_bias": true, "kernel_initializer": {"module": "keras.initializers", "class_name": "VarianceScaling", "config": {"scale": 2.0, "mode": "fan_out", "distribution": "truncated_normal", "seed": null}, "registered_name": null}, "bias_initializer": {"module": "keras.initializers", "class_name": "Zeros", "config": {}, "registered_name": null}, "kernel_regularizer": null, "bias_regularizer": null, "activity_regularizer": null, "kernel_constraint": null, "bias_constraint": null}, "name": "block5a_se_expand", "inbound_nodes": [{"args": [{"class_name": "__keras_tensor__", "config": {"shape": [null, 1, 1, 28], "dtype": "float32", "keras_history": ["block5a_se_reduce", 0, 0]}}], "kwargs": {}}]}, {"class_name": "Multiply", "config": {"name": "block5a_se_excite", "trainable": false, "dtype": "float32"}, "name": "block5a_se_excite", "inbound_nodes": [{"args": [[{"class_name": "__keras_tensor__", "config": {"shape": [null, 19, 19, 672], "dtype": "float32", "keras_history": ["block5a_activation", 0, 0]}}, {"class_name": "__keras_tensor__", "config": {"shape": [null, 1, 1, 672], "dtype": "float32", "keras_history": ["block5a_se_expand", 0, 0]}}]], "kwargs": {}}]}, {"class_name": "Conv2D", "config": {"name": "block5a_project_conv", "trainable": false, "dtype": "float32", "filters": 136, "kernel_size": [1, 1], "strides": [1, 1], "padding": "same", "data_format": "channels_last", "dilation_rate": [1, 1], "groups": 1, "activation": "linear", "use_bias": false, "kernel_initializer": {"module": "keras.initializers", "class_name": "VarianceScaling", "config": {"scale": 2.0, "mode": "fan_out", "distribution": "truncated_normal", "seed": null}, "registered_name": null}, "bias_initializer": {"module": "keras.initializers", "class_name": "Zeros", "config": {}, "registered_name": null}, "kernel_regularizer": null, "bias_regularizer": null, "activity_regularizer": null, "kernel_constraint": null, "bias_constraint": null}, "name": "block5a_project_conv", "inbound_nodes": [{"args": [{"class_name": "__keras_tensor__", "config": {"shape": [null, 19, 19, 672], "dtype": "float32", "keras_history": ["block5a_se_excite", 0, 0]}}], "kwargs": {}}]}, {"class_name": "BatchNormalization", "config": {"name": "block5a_project_bn", "trainable": false, "dtype": "float32", "axis": 3, "momentum": 0.9, "epsilon": 0.001, "center": true, "scale": true, "beta_initializer": {"module": "keras.initializers", "class_name": "Zeros", "config": {}, "registered_name": null}, "gamma_initializer": {"module": "keras.initializers", "class_name": "Ones", "config": {}, "registered_name": null}, "moving_mean_initializer": {"module": "keras.initializers", "class_name": "Zeros", "config": {}, "registered_name": null}, "moving_variance_initializer": {"module": "keras.initializers", "class_name": "Ones", "config": {}, "registered_name": null}, "beta_regularizer": null, "gamma_regularizer": null, "beta_constraint": null, "gamma_constraint": null, "synchronized": false}, "name": "block5a_project_bn", "inbound_nodes": [{"args": [{"class_name": "__keras_tensor__", "config": {"shape": [null, 19, 19, 136], "dtype": "float32", "keras_history": ["block5a_project_conv", 0, 0]}}], "kwargs": {"mask": null}}]}, {"class_name": "Conv2D", "config": {"name": "block5b_expand_conv", "trainable": false, "dtype": "float32", "filters": 816, "kernel_size": [1, 1], "strides": [1, 1], "padding": "same", "data_format": "channels_last", "dilation_rate": [1, 1], "groups": 1, "activation": "linear", "use_bias": false, "kernel_initializer": {"module": "keras.initializers", "class_name": "VarianceScaling", "config": {"scale": 2.0, "mode": "fan_out", "distribution": "truncated_normal", "seed": null}, "registered_name": null}, "bias_initializer": {"module": "keras.initializers", "class_name": "Zeros", "config": {}, "registered_name": null}, "kernel_regularizer": null, "bias_regularizer": null, "activity_regularizer": null, "kernel_constraint": null, "bias_constraint": null}, "name": "block5b_expand_conv", "inbound_nodes": [{"args": [{"class_name": "__keras_tensor__", "config": {"shape": [null, 19, 19, 136], "dtype": "float32", "keras_history": ["block5a_project_bn", 0, 0]}}], "kwargs": {}}]}, {"class_name": "BatchNormalization", "config": {"name": "block5b_expand_bn", "trainable": false, "dtype": "float32", "axis": 3, "momentum": 0.9, "epsilon": 0.001, "center": true, "scale": true, "beta_initializer": {"module": "keras.initializers", "class_name": "Zeros", "config": {}, "registered_name": null}, "gamma_initializer": {"module": "keras.initializers", "class_name": "Ones", "config": {}, "registered_name": null}, "moving_mean_initializer": {"module": "keras.initializers", "class_name": "Zeros", "config": {}, "registered_name": null}, "moving_variance_initializer": {"module": "keras.initializers", "class_name": "Ones", "config": {}, "registered_name": null}, "beta_regularizer": null, "gamma_regularizer": null, "beta_constraint": null, "gamma_constraint": null, "synchronized": false}, "name": "block5b_expand_bn", "inbound_nodes": [{"args": [{"class_name": "__keras_tensor__", "config": {"shape": [null, 19, 19, 816], "dtype": "float32", "keras_history": ["block5b_expand_conv", 0, 0]}}], "kwargs": {"mask": null}}]}, {"class_name": "Activation", "config": {"name": "block5b_expand_activation", "trainable": false, "dtype": "float32", "activation": "silu"}, "name": "block5b_expand_activation", "inbound_nodes": [{"args": [{"class_name": "__keras_tensor__", "config": {"shape": [null, 19, 19, 816], "dtype": "float32", "keras_history": ["block5b_expand_bn", 0, 0]}}], "kwargs": {}}]}, {"class_name": "DepthwiseConv2D", "config": {"name": "block5b_dwconv2", "trainable": false, "dtype": "float32", "depth_multiplier": 1, "kernel_size": [3, 3], "strides": [1, 1], "padding": "same", "data_format": "channels_last", "dilation_rate": [1, 1], "activation": "linear", "use_bias": false, "depthwise_initializer": {"module": "keras.initializers", "class_name": "VarianceScaling", "config": {"scale": 2.0, "mode": "fan_out", "distribution": "truncated_normal", "seed": null}, "registered_name": null}, "bias_initializer": {"module": "keras.initializers", "class_name": "Zeros", "config": {}, "registered_name": null}, "depthwise_regularizer": null, "bias_regularizer": null, "activity_regularizer": null, "depthwise_constraint": null, "bias_constraint": null}, "name": "block5b_dwconv2", "inbound_nodes": [{"args": [{"class_name": "__keras_tensor__", "config": {"shape": [null, 19, 19, 816], "dtype": "float32", "keras_history": ["block5b_expand_activation", 0, 0]}}], "kwargs": {}}]}, {"class_name": "BatchNormalization", "config": {"name": "block5b_bn", "trainable": false, "dtype": "float32", "axis": 3, "momentum": 0.9, "epsilon": 0.001, "center": true, "scale": true, "beta_initializer": {"module": "keras.initializers", "class_name": "Zeros", "config": {}, "registered_name": null}, "gamma_initializer": {"module": "keras.initializers", "class_name": "Ones", "config": {}, "registered_name": null}, "moving_mean_initializer": {"module": "keras.initializers", "class_name": "Zeros", "config": {}, "registered_name": null}, "moving_variance_initializer": {"module": "keras.initializers", "class_name": "Ones", "config": {}, "registered_name": null}, "beta_regularizer": null, "gamma_regularizer": null, "beta_constraint": null, "gamma_constraint": null, "synchronized": false}, "name": "block5b_bn", "inbound_nodes": [{"args": [{"class_name": "__keras_tensor__", "config": {"shape": [null, 19, 19, 816], "dtype": "float32", "keras_history": ["block5b_dwconv2", 0, 0]}}], "kwargs": {"mask": null}}]}, {"class_name": "Activation", "config": {"name": "block5b_activation", "trainable": false, "dtype": "float32", "activation": "silu"}, "name": "block5b_activation", "inbound_nodes": [{"args": [{"class_name": "__keras_tensor__", "config": {"shape": [null, 19, 19, 816], "dtype": "float32", "keras_history": ["block5b_bn", 0, 0]}}], "kwargs": {}}]}, {"class_name": "GlobalAveragePooling2D", "config": {"name": "block5b_se_squeeze", "trainable": false, "dtype": "float32", "data_format": "channels_last", "keepdims": false}, "name": "block5b_se_squeeze", "inbound_nodes": [{"args": [{"class_name": "__keras_tensor__", "config": {"shape": [null, 19, 19, 816], "dtype": "float32", "keras_history": ["block5b_activation", 0, 0]}}], "kwargs": {}}]}, {"class_name": "Reshape", "config": {"name": "block5b_se_reshape", "trainable": false, "dtype": "float32", "target_shape": [1, 1, 816]}, "name": "block5b_se_reshape", "inbound_nodes": [{"args": [{"class_name": "__keras_tensor__", "config": {"shape": [null, 816], "dtype": "float32", "keras_history": ["block5b_se_squeeze", 0, 0]}}], "kwargs": {}}]}, {"class_name": "Conv2D", "config": {"name": "block5b_se_reduce", "trainable": false, "dtype": "float32", "filters": 34, "kernel_size": [1, 1], "strides": [1, 1], "padding": "same", "data_format": "channels_last", "dilation_rate": [1, 1], "groups": 1, "activation": "silu", "use_bias": true, "kernel_initializer": {"module": "keras.initializers", "class_name": "VarianceScaling", "config": {"scale": 2.0, "mode": "fan_out", "distribution": "truncated_normal", "seed": null}, "registered_name": null}, "bias_initializer": {"module": "keras.initializers", "class_name": "Zeros", "config": {}, "registered_name": null}, "kernel_regularizer": null, "bias_regularizer": null, "activity_regularizer": null, "kernel_constraint": null, "bias_constraint": null}, "name": "block5b_se_reduce", "inbound_nodes": [{"args": [{"class_name": "__keras_tensor__", "config": {"shape": [null, 1, 1, 816], "dtype": "float32", "keras_history": ["block5b_se_reshape", 0, 0]}}], "kwargs": {}}]}, {"class_name": "Conv2D", "config": {"name": "block5b_se_expand", "trainable": false, "dtype": "float32", "filters": 816, "kernel_size": [1, 1], "strides": [1, 1], "padding": "same", "data_format": "channels_last", "dilation_rate": [1, 1], "groups": 1, "activation": "sigmoid", "use_bias": true, "kernel_initializer": {"module": "keras.initializers", "class_name": "VarianceScaling", "config": {"scale": 2.0, "mode": "fan_out", "distribution": "truncated_normal", "seed": null}, "registered_name": null}, "bias_initializer": {"module": "keras.initializers", "class_name": "Zeros", "config": {}, "registered_name": null}, "kernel_regularizer": null, "bias_regularizer": null, "activity_regularizer": null, "kernel_constraint": null, "bias_constraint": null}, "name": "block5b_se_expand", "inbound_nodes": [{"args": [{"class_name": "__keras_tensor__", "config": {"shape": [null, 1, 1, 34], "dtype": "float32", "keras_history": ["block5b_se_reduce", 0, 0]}}], "kwargs": {}}]}, {"class_name": "Multiply", "config": {"name": "block5b_se_excite", "trainable": false, "dtype": "float32"}, "name": "block5b_se_excite", "inbound_nodes": [{"args": [[{"class_name": "__keras_tensor__", "config": {"shape": [null, 19, 19, 816], "dtype": "float32", "keras_history": ["block5b_activation", 0, 0]}}, {"class_name": "__keras_tensor__", "config": {"shape": [null, 1, 1, 816], "dtype": "float32", "keras_history": ["block5b_se_expand", 0, 0]}}]], "kwargs": {}}]}, {"class_name": "Conv2D", "config": {"name": "block5b_project_conv", "trainable": false, "dtype": "float32", "filters": 136, "kernel_size": [1, 1], "strides": [1, 1], "padding": "same", "data_format": "channels_last", "dilation_rate": [1, 1], "groups": 1, "activation": "linear", "use_bias": false, "kernel_initializer": {"module": "keras.initializers", "class_name": "VarianceScaling", "config": {"scale": 2.0, "mode": "fan_out", "distribution": "truncated_normal", "seed": null}, "registered_name": null}, "bias_initializer": {"module": "keras.initializers", "class_name": "Zeros", "config": {}, "registered_name": null}, "kernel_regularizer": null, "bias_regularizer": null, "activity_regularizer": null, "kernel_constraint": null, "bias_constraint": null}, "name": "block5b_project_conv", "inbound_nodes": [{"args": [{"class_name": "__keras_tensor__", "config": {"shape": [null, 19, 19, 816], "dtype": "float32", "keras_history": ["block5b_se_excite", 0, 0]}}], "kwargs": {}}]}, {"class_name": "BatchNormalization", "config": {"name": "block5b_project_bn", "trainable": false, "dtype": "float32", "axis": 3, "momentum": 0.9, "epsilon": 0.001, "center": true, "scale": true, "beta_initializer": {"module": "keras.initializers", "class_name": "Zeros", "config": {}, "registered_name": null}, "gamma_initializer": {"module": "keras.initializers", "class_name": "Ones", "config": {}, "registered_name": null}, "moving_mean_initializer": {"module": "keras.initializers", "class_name": "Zeros", "config": {}, "registered_name": null}, "moving_variance_initializer": {"module": "keras.initializers", "class_name": "Ones", "config": {}, "registered_name": null}, "beta_regularizer": null, "gamma_regularizer": null, "beta_constraint": null, "gamma_constraint": null, "synchronized": false}, "name": "block5b_project_bn", "inbound_nodes": [{"args": [{"class_name": "__keras_tensor__", "config": {"shape": [null, 19, 19, 136], "dtype": "float32", "keras_history": ["block5b_project_conv", 0, 0]}}], "kwargs": {"mask": null}}]}, {"class_name": "Dropout", "config": {"name": "block5b_drop", "trainable": false, "dtype": "float32", "rate": 0.13333333333333336, "seed": null, "noise_shape": [null, 1, 1, 1]}, "name": "block5b_drop", "inbound_nodes": [{"args": [{"class_name": "__keras_tensor__", "config": {"shape": [null, 19, 19, 136], "dtype": "float32", "keras_history": ["block5b_project_bn", 0, 0]}}], "kwargs": {"training": false}}]}, {"class_name": "Add", "config": {"name": "block5b_add", "trainable": false, "dtype": "float32"}, "name": "block5b_add", "inbound_nodes": [{"args": [[{"class_name": "__keras_tensor__", "config": {"shape": [null, 19, 19, 136], "dtype": "float32", "keras_history": ["block5b_drop", 0, 0]}}, {"class_name": "__keras_tensor__", "config": {"shape": [null, 19, 19, 136], "dtype": "float32", "keras_history": ["block5a_project_bn", 0, 0]}}]], "kwargs": {}}]}, {"class_name": "Conv2D", "config": {"name": "block5c_expand_conv", "trainable": false, "dtype": "float32", "filters": 816, "kernel_size": [1, 1], "strides": [1, 1], "padding": "same", "data_format": "channels_last", "dilation_rate": [1, 1], "groups": 1, "activation": "linear", "use_bias": false, "kernel_initializer": {"module": "keras.initializers", "class_name": "VarianceScaling", "config": {"scale": 2.0, "mode": "fan_out", "distribution": "truncated_normal", "seed": null}, "registered_name": null}, "bias_initializer": {"module": "keras.initializers", "class_name": "Zeros", "config": {}, "registered_name": null}, "kernel_regularizer": null, "bias_regularizer": null, "activity_regularizer": null, "kernel_constraint": null, "bias_constraint": null}, "name": "block5c_expand_conv", "inbound_nodes": [{"args": [{"class_name": "__keras_tensor__", "config": {"shape": [null, 19, 19, 136], "dtype": "float32", "keras_history": ["block5b_add", 0, 0]}}], "kwargs": {}}]}, {"class_name": "BatchNormalization", "config": {"name": "block5c_expand_bn", "trainable": false, "dtype": "float32", "axis": 3, "momentum": 0.9, "epsilon": 0.001, "center": true, "scale": true, "beta_initializer": {"module": "keras.initializers", "class_name": "Zeros", "config": {}, "registered_name": null}, "gamma_initializer": {"module": "keras.initializers", "class_name": "Ones", "config": {}, "registered_name": null}, "moving_mean_initializer": {"module": "keras.initializers", "class_name": "Zeros", "config": {}, "registered_name": null}, "moving_variance_initializer": {"module": "keras.initializers", "class_name": "Ones", "config": {}, "registered_name": null}, "beta_regularizer": null, "gamma_regularizer": null, "beta_constraint": null, "gamma_constraint": null, "synchronized": false}, "name": "block5c_expand_bn", "inbound_nodes": [{"args": [{"class_name": "__keras_tensor__", "config": {"shape": [null, 19, 19, 816], "dtype": "float32", "keras_history": ["block5c_expand_conv", 0, 0]}}], "kwargs": {"mask": null}}]}, {"class_name": "Activation", "config": {"name": "block5c_expand_activation", "trainable": false, "dtype": "float32", "activation": "silu"}, "name": "block5c_expand_activation", "inbound_nodes": [{"args": [{"class_name": "__keras_tensor__", "config": {"shape": [null, 19, 19, 816], "dtype": "float32", "keras_history": ["block5c_expand_bn", 0, 0]}}], "kwargs": {}}]}, {"class_name": "DepthwiseConv2D", "config": {"name": "block5c_dwconv2", "trainable": false, "dtype": "float32", "depth_multiplier": 1, "kernel_size": [3, 3], "strides": [1, 1], "padding": "same", "data_format": "channels_last", "dilation_rate": [1, 1], "activation": "linear", "use_bias": false, "depthwise_initializer": {"module": "keras.initializers", "class_name": "VarianceScaling", "config": {"scale": 2.0, "mode": "fan_out", "distribution": "truncated_normal", "seed": null}, "registered_name": null}, "bias_initializer": {"module": "keras.initializers", "class_name": "Zeros", "config": {}, "registered_name": null}, "depthwise_regularizer": null, "bias_regularizer": null, "activity_regularizer": null, "depthwise_constraint": null, "bias_constraint": null}, "name": "block5c_dwconv2", "inbound_nodes": [{"args": [{"class_name": "__keras_tensor__", "config": {"shape": [null, 19, 19, 816], "dtype": "float32", "keras_history": ["block5c_expand_activation", 0, 0]}}], "kwargs": {}}]}, {"class_name": "BatchNormalization", "config": {"name": "block5c_bn", "trainable": false, "dtype": "float32", "axis": 3, "momentum": 0.9, "epsilon": 0.001, "center": true, "scale": true, "beta_initializer": {"module": "keras.initializers", "class_name": "Zeros", "config": {}, "registered_name": null}, "gamma_initializer": {"module": "keras.initializers", "class_name": "Ones", "config": {}, "registered_name": null}, "moving_mean_initializer": {"module": "keras.initializers", "class_name": "Zeros", "config": {}, "registered_name": null}, "moving_variance_initializer": {"module": "keras.initializers", "class_name": "Ones", "config": {}, "registered_name": null}, "beta_regularizer": null, "gamma_regularizer": null, "beta_constraint": null, "gamma_constraint": null, "synchronized": false}, "name": "block5c_bn", "inbound_nodes": [{"args": [{"class_name": "__keras_tensor__", "config": {"shape": [null, 19, 19, 816], "dtype": "float32", "keras_history": ["block5c_dwconv2", 0, 0]}}], "kwargs": {"mask": null}}]}, {"class_name": "Activation", "config": {"name": "block5c_activation", "trainable": false, "dtype": "float32", "activation": "silu"}, "name": "block5c_activation", "inbound_nodes": [{"args": [{"class_name": "__keras_tensor__", "config": {"shape": [null, 19, 19, 816], "dtype": "float32", "keras_history": ["block5c_bn", 0, 0]}}], "kwargs": {}}]}, {"class_name": "GlobalAveragePooling2D", "config": {"name": "block5c_se_squeeze", "trainable": false, "dtype": "float32", "data_format": "channels_last", "keepdims": false}, "name": "block5c_se_squeeze", "inbound_nodes": [{"args": [{"class_name": "__keras_tensor__", "config": {"shape": [null, 19, 19, 816], "dtype": "float32", "keras_history": ["block5c_activation", 0, 0]}}], "kwargs": {}}]}, {"class_name": "Reshape", "config": {"name": "block5c_se_reshape", "trainable": false, "dtype": "float32", "target_shape": [1, 1, 816]}, "name": "block5c_se_reshape", "inbound_nodes": [{"args": [{"class_name": "__keras_tensor__", "config": {"shape": [null, 816], "dtype": "float32", "keras_history": ["block5c_se_squeeze", 0, 0]}}], "kwargs": {}}]}, {"class_name": "Conv2D", "config": {"name": "block5c_se_reduce", "trainable": false, "dtype": "float32", "filters": 34, "kernel_size": [1, 1], "strides": [1, 1], "padding": "same", "data_format": "channels_last", "dilation_rate": [1, 1], "groups": 1, "activation": "silu", "use_bias": true, "kernel_initializer": {"module": "keras.initializers", "class_name": "VarianceScaling", "config": {"scale": 2.0, "mode": "fan_out", "distribution": "truncated_normal", "seed": null}, "registered_name": null}, "bias_initializer": {"module": "keras.initializers", "class_name": "Zeros", "config": {}, "registered_name": null}, "kernel_regularizer": null, "bias_regularizer": null, "activity_regularizer": null, "kernel_constraint": null, "bias_constraint": null}, "name": "block5c_se_reduce", "inbound_nodes": [{"args": [{"class_name": "__keras_tensor__", "config": {"shape": [null, 1, 1, 816], "dtype": "float32", "keras_history": ["block5c_se_reshape", 0, 0]}}], "kwargs": {}}]}, {"class_name": "Conv2D", "config": {"name": "block5c_se_expand", "trainable": false, "dtype": "float32", "filters": 816, "kernel_size": [1, 1], "strides": [1, 1], "padding": "same", "data_format": "channels_last", "dilation_rate": [1, 1], "groups": 1, "activation": "sigmoid", "use_bias": true, "kernel_initializer": {"module": "keras.initializers", "class_name": "VarianceScaling", "config": {"scale": 2.0, "mode": "fan_out", "distribution": "truncated_normal", "seed": null}, "registered_name": null}, "bias_initializer": {"module": "keras.initializers", "class_name": "Zeros", "config": {}, "registered_name": null}, "kernel_regularizer": null, "bias_regularizer": null, "activity_regularizer": null, "kernel_constraint": null, "bias_constraint": null}, "name": "block5c_se_expand", "inbound_nodes": [{"args": [{"class_name": "__keras_tensor__", "config": {"shape": [null, 1, 1, 34], "dtype": "float32", "keras_history": ["block5c_se_reduce", 0, 0]}}], "kwargs": {}}]}, {"class_name": "Multiply", "config": {"name": "block5c_se_excite", "trainable": false, "dtype": "float32"}, "name": "block5c_se_excite", "inbound_nodes": [{"args": [[{"class_name": "__keras_tensor__", "config": {"shape": [null, 19, 19, 816], "dtype": "float32", "keras_history": ["block5c_activation", 0, 0]}}, {"class_name": "__keras_tensor__", "config": {"shape": [null, 1, 1, 816], "dtype": "float32", "keras_history": ["block5c_se_expand", 0, 0]}}]], "kwargs": {}}]}, {"class_name": "Conv2D", "config": {"name": "block5c_project_conv", "trainable": false, "dtype": "float32", "filters": 136, "kernel_size": [1, 1], "strides": [1, 1], "padding": "same", "data_format": "channels_last", "dilation_rate": [1, 1], "groups": 1, "activation": "linear", "use_bias": false, "kernel_initializer": {"module": "keras.initializers", "class_name": "VarianceScaling", "config": {"scale": 2.0, "mode": "fan_out", "distribution": "truncated_normal", "seed": null}, "registered_name": null}, "bias_initializer": {"module": "keras.initializers", "class_name": "Zeros", "config": {}, "registered_name": null}, "kernel_regularizer": null, "bias_regularizer": null, "activity_regularizer": null, "kernel_constraint": null, "bias_constraint": null}, "name": "block5c_project_conv", "inbound_nodes": [{"args": [{"class_name": "__keras_tensor__", "config": {"shape": [null, 19, 19, 816], "dtype": "float32", "keras_history": ["block5c_se_excite", 0, 0]}}], "kwargs": {}}]}, {"class_name": "BatchNormalization", "config": {"name": "block5c_project_bn", "trainable": false, "dtype": "float32", "axis": 3, "momentum": 0.9, "epsilon": 0.001, "center": true, "scale": true, "beta_initializer": {"module": "keras.initializers", "class_name": "Zeros", "config": {}, "registered_name": null}, "gamma_initializer": {"module": "keras.initializers", "class_name": "Ones", "config": {}, "registered_name": null}, "moving_mean_initializer": {"module": "keras.initializers", "class_name": "Zeros", "config": {}, "registered_name": null}, "moving_variance_initializer": {"module": "keras.initializers", "class_name": "Ones", "config": {}, "registered_name": null}, "beta_regularizer": null, "gamma_regularizer": null, "beta_constraint": null, "gamma_constraint": null, "synchronized": false}, "name": "block5c_project_bn", "inbound_nodes": [{"args": [{"class_name": "__keras_tensor__", "config": {"shape": [null, 19, 19, 136], "dtype": "float32", "keras_history": ["block5c_project_conv", 0, 0]}}], "kwargs": {"mask": null}}]}, {"class_name": "Dropout", "config": {"name": "block5c_drop", "trainable": false, "dtype": "float32", "rate": 0.14285714285714285, "seed": null, "noise_shape": [null, 1, 1, 1]}, "name": "block5c_drop", "inbound_nodes": [{"args": [{"class_name": "__keras_tensor__", "config": {"shape": [null, 19, 19, 136], "dtype": "float32", "keras_history": ["block5c_project_bn", 0, 0]}}], "kwargs": {"training": false}}]}, {"class_name": "Add", "config": {"name": "block5c_add", "trainable": false, "dtype": "float32"}, "name": "block5c_add", "inbound_nodes": [{"args": [[{"class_name": "__keras_tensor__", "config": {"shape": [null, 19, 19, 136], "dtype": "float32", "keras_history": ["block5c_drop", 0, 0]}}, {"class_name": "__keras_tensor__", "config": {"shape": [null, 19, 19, 136], "dtype": "float32", "keras_history": ["block5b_add", 0, 0]}}]], "kwargs": {}}]}, {"class_name": "Conv2D", "config": {"name": "block5d_expand_conv", "trainable": false, "dtype": "float32", "filters": 816, "kernel_size": [1, 1], "strides": [1, 1], "padding": "same", "data_format": "channels_last", "dilation_rate": [1, 1], "groups": 1, "activation": "linear", "use_bias": false, "kernel_initializer": {"module": "keras.initializers", "class_name": "VarianceScaling", "config": {"scale": 2.0, "mode": "fan_out", "distribution": "truncated_normal", "seed": null}, "registered_name": null}, "bias_initializer": {"module": "keras.initializers", "class_name": "Zeros", "config": {}, "registered_name": null}, "kernel_regularizer": null, "bias_regularizer": null, "activity_regularizer": null, "kernel_constraint": null, "bias_constraint": null}, "name": "block5d_expand_conv", "inbound_nodes": [{"args": [{"class_name": "__keras_tensor__", "config": {"shape": [null, 19, 19, 136], "dtype": "float32", "keras_history": ["block5c_add", 0, 0]}}], "kwargs": {}}]}, {"class_name": "BatchNormalization", "config": {"name": "block5d_expand_bn", "trainable": false, "dtype": "float32", "axis": 3, "momentum": 0.9, "epsilon": 0.001, "center": true, "scale": true, "beta_initializer": {"module": "keras.initializers", "class_name": "Zeros", "config": {}, "registered_name": null}, "gamma_initializer": {"module": "keras.initializers", "class_name": "Ones", "config": {}, "registered_name": null}, "moving_mean_initializer": {"module": "keras.initializers", "class_name": "Zeros", "config": {}, "registered_name": null}, "moving_variance_initializer": {"module": "keras.initializers", "class_name": "Ones", "config": {}, "registered_name": null}, "beta_regularizer": null, "gamma_regularizer": null, "beta_constraint": null, "gamma_constraint": null, "synchronized": false}, "name": "block5d_expand_bn", "inbound_nodes": [{"args": [{"class_name": "__keras_tensor__", "config": {"shape": [null, 19, 19, 816], "dtype": "float32", "keras_history": ["block5d_expand_conv", 0, 0]}}], "kwargs": {"mask": null}}]}, {"class_name": "Activation", "config": {"name": "block5d_expand_activation", "trainable": false, "dtype": "float32", "activation": "silu"}, "name": "block5d_expand_activation", "inbound_nodes": [{"args": [{"class_name": "__keras_tensor__", "config": {"shape": [null, 19, 19, 816], "dtype": "float32", "keras_history": ["block5d_expand_bn", 0, 0]}}], "kwargs": {}}]}, {"class_name": "DepthwiseConv2D", "config": {"name": "block5d_dwconv2", "trainable": false, "dtype": "float32", "depth_multiplier": 1, "kernel_size": [3, 3], "strides": [1, 1], "padding": "same", "data_format": "channels_last", "dilation_rate": [1, 1], "activation": "linear", "use_bias": false, "depthwise_initializer": {"module": "keras.initializers", "class_name": "VarianceScaling", "config": {"scale": 2.0, "mode": "fan_out", "distribution": "truncated_normal", "seed": null}, "registered_name": null}, "bias_initializer": {"module": "keras.initializers", "class_name": "Zeros", "config": {}, "registered_name": null}, "depthwise_regularizer": null, "bias_regularizer": null, "activity_regularizer": null, "depthwise_constraint": null, "bias_constraint": null}, "name": "block5d_dwconv2", "inbound_nodes": [{"args": [{"class_name": "__keras_tensor__", "config": {"shape": [null, 19, 19, 816], "dtype": "float32", "keras_history": ["block5d_expand_activation", 0, 0]}}], "kwargs": {}}]}, {"class_name": "BatchNormalization", "config": {"name": "block5d_bn", "trainable": false, "dtype": "float32", "axis": 3, "momentum": 0.9, "epsilon": 0.001, "center": true, "scale": true, "beta_initializer": {"module": "keras.initializers", "class_name": "Zeros", "config": {}, "registered_name": null}, "gamma_initializer": {"module": "keras.initializers", "class_name": "Ones", "config": {}, "registered_name": null}, "moving_mean_initializer": {"module": "keras.initializers", "class_name": "Zeros", "config": {}, "registered_name": null}, "moving_variance_initializer": {"module": "keras.initializers", "class_name": "Ones", "config": {}, "registered_name": null}, "beta_regularizer": null, "gamma_regularizer": null, "beta_constraint": null, "gamma_constraint": null, "synchronized": false}, "name": "block5d_bn", "inbound_nodes": [{"args": [{"class_name": "__keras_tensor__", "config": {"shape": [null, 19, 19, 816], "dtype": "float32", "keras_history": ["block5d_dwconv2", 0, 0]}}], "kwargs": {"mask": null}}]}, {"class_name": "Activation", "config": {"name": "block5d_activation", "trainable": false, "dtype": "float32", "activation": "silu"}, "name": "block5d_activation", "inbound_nodes": [{"args": [{"class_name": "__keras_tensor__", "config": {"shape": [null, 19, 19, 816], "dtype": "float32", "keras_history": ["block5d_bn", 0, 0]}}], "kwargs": {}}]}, {"class_name": "GlobalAveragePooling2D", "config": {"name": "block5d_se_squeeze", "trainable": false, "dtype": "float32", "data_format": "channels_last", "keepdims": false}, "name": "block5d_se_squeeze", "inbound_nodes": [{"args": [{"class_name": "__keras_tensor__", "config": {"shape": [null, 19, 19, 816], "dtype": "float32", "keras_history": ["block5d_activation", 0, 0]}}], "kwargs": {}}]}, {"class_name": "Reshape", "config": {"name": "block5d_se_reshape", "trainable": false, "dtype": "float32", "target_shape": [1, 1, 816]}, "name": "block5d_se_reshape", "inbound_nodes": [{"args": [{"class_name": "__keras_tensor__", "config": {"shape": [null, 816], "dtype": "float32", "keras_history": ["block5d_se_squeeze", 0, 0]}}], "kwargs": {}}]}, {"class_name": "Conv2D", "config": {"name": "block5d_se_reduce", "trainable": false, "dtype": "float32", "filters": 34, "kernel_size": [1, 1], "strides": [1, 1], "padding": "same", "data_format": "channels_last", "dilation_rate": [1, 1], "groups": 1, "activation": "silu", "use_bias": true, "kernel_initializer": {"module": "keras.initializers", "class_name": "VarianceScaling", "config": {"scale": 2.0, "mode": "fan_out", "distribution": "truncated_normal", "seed": null}, "registered_name": null}, "bias_initializer": {"module": "keras.initializers", "class_name": "Zeros", "config": {}, "registered_name": null}, "kernel_regularizer": null, "bias_regularizer": null, "activity_regularizer": null, "kernel_constraint": null, "bias_constraint": null}, "name": "block5d_se_reduce", "inbound_nodes": [{"args": [{"class_name": "__keras_tensor__", "config": {"shape": [null, 1, 1, 816], "dtype": "float32", "keras_history": ["block5d_se_reshape", 0, 0]}}], "kwargs": {}}]}, {"class_name": "Conv2D", "config": {"name": "block5d_se_expand", "trainable": false, "dtype": "float32", "filters": 816, "kernel_size": [1, 1], "strides": [1, 1], "padding": "same", "data_format": "channels_last", "dilation_rate": [1, 1], "groups": 1, "activation": "sigmoid", "use_bias": true, "kernel_initializer": {"module": "keras.initializers", "class_name": "VarianceScaling", "config": {"scale": 2.0, "mode": "fan_out", "distribution": "truncated_normal", "seed": null}, "registered_name": null}, "bias_initializer": {"module": "keras.initializers", "class_name": "Zeros", "config": {}, "registered_name": null}, "kernel_regularizer": null, "bias_regularizer": null, "activity_regularizer": null, "kernel_constraint": null, "bias_constraint": null}, "name": "block5d_se_expand", "inbound_nodes": [{"args": [{"class_name": "__keras_tensor__", "config": {"shape": [null, 1, 1, 34], "dtype": "float32", "keras_history": ["block5d_se_reduce", 0, 0]}}], "kwargs": {}}]}, {"class_name": "Multiply", "config": {"name": "block5d_se_excite", "trainable": false, "dtype": "float32"}, "name": "block5d_se_excite", "inbound_nodes": [{"args": [[{"class_name": "__keras_tensor__", "config": {"shape": [null, 19, 19, 816], "dtype": "float32", "keras_history": ["block5d_activation", 0, 0]}}, {"class_name": "__keras_tensor__", "config": {"shape": [null, 1, 1, 816], "dtype": "float32", "keras_history": ["block5d_se_expand", 0, 0]}}]], "kwargs": {}}]}, {"class_name": "Conv2D", "config": {"name": "block5d_project_conv", "trainable": false, "dtype": "float32", "filters": 136, "kernel_size": [1, 1], "strides": [1, 1], "padding": "same", "data_format": "channels_last", "dilation_rate": [1, 1], "groups": 1, "activation": "linear", "use_bias": false, "kernel_initializer": {"module": "keras.initializers", "class_name": "VarianceScaling", "config": {"scale": 2.0, "mode": "fan_out", "distribution": "truncated_normal", "seed": null}, "registered_name": null}, "bias_initializer": {"module": "keras.initializers", "class_name": "Zeros", "config": {}, "registered_name": null}, "kernel_regularizer": null, "bias_regularizer": null, "activity_regularizer": null, "kernel_constraint": null, "bias_constraint": null}, "name": "block5d_project_conv", "inbound_nodes": [{"args": [{"class_name": "__keras_tensor__", "config": {"shape": [null, 19, 19, 816], "dtype": "float32", "keras_history": ["block5d_se_excite", 0, 0]}}], "kwargs": {}}]}, {"class_name": "BatchNormalization", "config": {"name": "block5d_project_bn", "trainable": false, "dtype": "float32", "axis": 3, "momentum": 0.9, "epsilon": 0.001, "center": true, "scale": true, "beta_initializer": {"module": "keras.initializers", "class_name": "Zeros", "config": {}, "registered_name": null}, "gamma_initializer": {"module": "keras.initializers", "class_name": "Ones", "config": {}, "registered_name": null}, "moving_mean_initializer": {"module": "keras.initializers", "class_name": "Zeros", "config": {}, "registered_name": null}, "moving_variance_initializer": {"module": "keras.initializers", "class_name": "Ones", "config": {}, "registered_name": null}, "beta_regularizer": null, "gamma_regularizer": null, "beta_constraint": null, "gamma_constraint": null, "synchronized": false}, "name": "block5d_project_bn", "inbound_nodes": [{"args": [{"class_name": "__keras_tensor__", "config": {"shape": [null, 19, 19, 136], "dtype": "float32", "keras_history": ["block5d_project_conv", 0, 0]}}], "kwargs": {"mask": null}}]}, {"class_name": "Dropout", "config": {"name": "block5d_drop", "trainable": false, "dtype": "float32", "rate": 0.1523809523809524, "seed": null, "noise_shape": [null, 1, 1, 1]}, "name": "block5d_drop", "inbound_nodes": [{"args": [{"class_name": "__keras_tensor__", "config": {"shape": [null, 19, 19, 136], "dtype": "float32", "keras_history": ["block5d_project_bn", 0, 0]}}], "kwargs": {"training": false}}]}, {"class_name": "Add", "config": {"name": "block5d_add", "trainable": false, "dtype": "float32"}, "name": "block5d_add", "inbound_nodes": [{"args": [[{"class_name": "__keras_tensor__", "config": {"shape": [null, 19, 19, 136], "dtype": "float32", "keras_history": ["block5d_drop", 0, 0]}}, {"class_name": "__keras_tensor__", "config": {"shape": [null, 19, 19, 136], "dtype": "float32", "keras_history": ["block5c_add", 0, 0]}}]], "kwargs": {}}]}, {"class_name": "Conv2D", "config": {"name": "block5e_expand_conv", "trainable": false, "dtype": "float32", "filters": 816, "kernel_size": [1, 1], "strides": [1, 1], "padding": "same", "data_format": "channels_last", "dilation_rate": [1, 1], "groups": 1, "activation": "linear", "use_bias": false, "kernel_initializer": {"module": "keras.initializers", "class_name": "VarianceScaling", "config": {"scale": 2.0, "mode": "fan_out", "distribution": "truncated_normal", "seed": null}, "registered_name": null}, "bias_initializer": {"module": "keras.initializers", "class_name": "Zeros", "config": {}, "registered_name": null}, "kernel_regularizer": null, "bias_regularizer": null, "activity_regularizer": null, "kernel_constraint": null, "bias_constraint": null}, "name": "block5e_expand_conv", "inbound_nodes": [{"args": [{"class_name": "__keras_tensor__", "config": {"shape": [null, 19, 19, 136], "dtype": "float32", "keras_history": ["block5d_add", 0, 0]}}], "kwargs": {}}]}, {"class_name": "BatchNormalization", "config": {"name": "block5e_expand_bn", "trainable": false, "dtype": "float32", "axis": 3, "momentum": 0.9, "epsilon": 0.001, "center": true, "scale": true, "beta_initializer": {"module": "keras.initializers", "class_name": "Zeros", "config": {}, "registered_name": null}, "gamma_initializer": {"module": "keras.initializers", "class_name": "Ones", "config": {}, "registered_name": null}, "moving_mean_initializer": {"module": "keras.initializers", "class_name": "Zeros", "config": {}, "registered_name": null}, "moving_variance_initializer": {"module": "keras.initializers", "class_name": "Ones", "config": {}, "registered_name": null}, "beta_regularizer": null, "gamma_regularizer": null, "beta_constraint": null, "gamma_constraint": null, "synchronized": false}, "name": "block5e_expand_bn", "inbound_nodes": [{"args": [{"class_name": "__keras_tensor__", "config": {"shape": [null, 19, 19, 816], "dtype": "float32", "keras_history": ["block5e_expand_conv", 0, 0]}}], "kwargs": {"mask": null}}]}, {"class_name": "Activation", "config": {"name": "block5e_expand_activation", "trainable": false, "dtype": "float32", "activation": "silu"}, "name": "block5e_expand_activation", "inbound_nodes": [{"args": [{"class_name": "__keras_tensor__", "config": {"shape": [null, 19, 19, 816], "dtype": "float32", "keras_history": ["block5e_expand_bn", 0, 0]}}], "kwargs": {}}]}, {"class_name": "DepthwiseConv2D", "config": {"name": "block5e_dwconv2", "trainable": false, "dtype": "float32", "depth_multiplier": 1, "kernel_size": [3, 3], "strides": [1, 1], "padding": "same", "data_format": "channels_last", "dilation_rate": [1, 1], "activation": "linear", "use_bias": false, "depthwise_initializer": {"module": "keras.initializers", "class_name": "VarianceScaling", "config": {"scale": 2.0, "mode": "fan_out", "distribution": "truncated_normal", "seed": null}, "registered_name": null}, "bias_initializer": {"module": "keras.initializers", "class_name": "Zeros", "config": {}, "registered_name": null}, "depthwise_regularizer": null, "bias_regularizer": null, "activity_regularizer": null, "depthwise_constraint": null, "bias_constraint": null}, "name": "block5e_dwconv2", "inbound_nodes": [{"args": [{"class_name": "__keras_tensor__", "config": {"shape": [null, 19, 19, 816], "dtype": "float32", "keras_history": ["block5e_expand_activation", 0, 0]}}], "kwargs": {}}]}, {"class_name": "BatchNormalization", "config": {"name": "block5e_bn", "trainable": false, "dtype": "float32", "axis": 3, "momentum": 0.9, "epsilon": 0.001, "center": true, "scale": true, "beta_initializer": {"module": "keras.initializers", "class_name": "Zeros", "config": {}, "registered_name": null}, "gamma_initializer": {"module": "keras.initializers", "class_name": "Ones", "config": {}, "registered_name": null}, "moving_mean_initializer": {"module": "keras.initializers", "class_name": "Zeros", "config": {}, "registered_name": null}, "moving_variance_initializer": {"module": "keras.initializers", "class_name": "Ones", "config": {}, "registered_name": null}, "beta_regularizer": null, "gamma_regularizer": null, "beta_constraint": null, "gamma_constraint": null, "synchronized": false}, "name": "block5e_bn", "inbound_nodes": [{"args": [{"class_name": "__keras_tensor__", "config": {"shape": [null, 19, 19, 816], "dtype": "float32", "keras_history": ["block5e_dwconv2", 0, 0]}}], "kwargs": {"mask": null}}]}, {"class_name": "Activation", "config": {"name": "block5e_activation", "trainable": false, "dtype": "float32", "activation": "silu"}, "name": "block5e_activation", "inbound_nodes": [{"args": [{"class_name": "__keras_tensor__", "config": {"shape": [null, 19, 19, 816], "dtype": "float32", "keras_history": ["block5e_bn", 0, 0]}}], "kwargs": {}}]}, {"class_name": "GlobalAveragePooling2D", "config": {"name": "block5e_se_squeeze", "trainable": false, "dtype": "float32", "data_format": "channels_last", "keepdims": false}, "name": "block5e_se_squeeze", "inbound_nodes": [{"args": [{"class_name": "__keras_tensor__", "config": {"shape": [null, 19, 19, 816], "dtype": "float32", "keras_history": ["block5e_activation", 0, 0]}}], "kwargs": {}}]}, {"class_name": "Reshape", "config": {"name": "block5e_se_reshape", "trainable": false, "dtype": "float32", "target_shape": [1, 1, 816]}, "name": "block5e_se_reshape", "inbound_nodes": [{"args": [{"class_name": "__keras_tensor__", "config": {"shape": [null, 816], "dtype": "float32", "keras_history": ["block5e_se_squeeze", 0, 0]}}], "kwargs": {}}]}, {"class_name": "Conv2D", "config": {"name": "block5e_se_reduce", "trainable": false, "dtype": "float32", "filters": 34, "kernel_size": [1, 1], "strides": [1, 1], "padding": "same", "data_format": "channels_last", "dilation_rate": [1, 1], "groups": 1, "activation": "silu", "use_bias": true, "kernel_initializer": {"module": "keras.initializers", "class_name": "VarianceScaling", "config": {"scale": 2.0, "mode": "fan_out", "distribution": "truncated_normal", "seed": null}, "registered_name": null}, "bias_initializer": {"module": "keras.initializers", "class_name": "Zeros", "config": {}, "registered_name": null}, "kernel_regularizer": null, "bias_regularizer": null, "activity_regularizer": null, "kernel_constraint": null, "bias_constraint": null}, "name": "block5e_se_reduce", "inbound_nodes": [{"args": [{"class_name": "__keras_tensor__", "config": {"shape": [null, 1, 1, 816], "dtype": "float32", "keras_history": ["block5e_se_reshape", 0, 0]}}], "kwargs": {}}]}, {"class_name": "Conv2D", "config": {"name": "block5e_se_expand", "trainable": false, "dtype": "float32", "filters": 816, "kernel_size": [1, 1], "strides": [1, 1], "padding": "same", "data_format": "channels_last", "dilation_rate": [1, 1], "groups": 1, "activation": "sigmoid", "use_bias": true, "kernel_initializer": {"module": "keras.initializers", "class_name": "VarianceScaling", "config": {"scale": 2.0, "mode": "fan_out", "distribution": "truncated_normal", "seed": null}, "registered_name": null}, "bias_initializer": {"module": "keras.initializers", "class_name": "Zeros", "config": {}, "registered_name": null}, "kernel_regularizer": null, "bias_regularizer": null, "activity_regularizer": null, "kernel_constraint": null, "bias_constraint": null}, "name": "block5e_se_expand", "inbound_nodes": [{"args": [{"class_name": "__keras_tensor__", "config": {"shape": [null, 1, 1, 34], "dtype": "float32", "keras_history": ["block5e_se_reduce", 0, 0]}}], "kwargs": {}}]}, {"class_name": "Multiply", "config": {"name": "block5e_se_excite", "trainable": false, "dtype": "float32"}, "name": "block5e_se_excite", "inbound_nodes": [{"args": [[{"class_name": "__keras_tensor__", "config": {"shape": [null, 19, 19, 816], "dtype": "float32", "keras_history": ["block5e_activation", 0, 0]}}, {"class_name": "__keras_tensor__", "config": {"shape": [null, 1, 1, 816], "dtype": "float32", "keras_history": ["block5e_se_expand", 0, 0]}}]], "kwargs": {}}]}, {"class_name": "Conv2D", "config": {"name": "block5e_project_conv", "trainable": false, "dtype": "float32", "filters": 136, "kernel_size": [1, 1], "strides": [1, 1], "padding": "same", "data_format": "channels_last", "dilation_rate": [1, 1], "groups": 1, "activation": "linear", "use_bias": false, "kernel_initializer": {"module": "keras.initializers", "class_name": "VarianceScaling", "config": {"scale": 2.0, "mode": "fan_out", "distribution": "truncated_normal", "seed": null}, "registered_name": null}, "bias_initializer": {"module": "keras.initializers", "class_name": "Zeros", "config": {}, "registered_name": null}, "kernel_regularizer": null, "bias_regularizer": null, "activity_regularizer": null, "kernel_constraint": null, "bias_constraint": null}, "name": "block5e_project_conv", "inbound_nodes": [{"args": [{"class_name": "__keras_tensor__", "config": {"shape": [null, 19, 19, 816], "dtype": "float32", "keras_history": ["block5e_se_excite", 0, 0]}}], "kwargs": {}}]}, {"class_name": "BatchNormalization", "config": {"name": "block5e_project_bn", "trainable": false, "dtype": "float32", "axis": 3, "momentum": 0.9, "epsilon": 0.001, "center": true, "scale": true, "beta_initializer": {"module": "keras.initializers", "class_name": "Zeros", "config": {}, "registered_name": null}, "gamma_initializer": {"module": "keras.initializers", "class_name": "Ones", "config": {}, "registered_name": null}, "moving_mean_initializer": {"module": "keras.initializers", "class_name": "Zeros", "config": {}, "registered_name": null}, "moving_variance_initializer": {"module": "keras.initializers", "class_name": "Ones", "config": {}, "registered_name": null}, "beta_regularizer": null, "gamma_regularizer": null, "beta_constraint": null, "gamma_constraint": null, "synchronized": false}, "name": "block5e_project_bn", "inbound_nodes": [{"args": [{"class_name": "__keras_tensor__", "config": {"shape": [null, 19, 19, 136], "dtype": "float32", "keras_history": ["block5e_project_conv", 0, 0]}}], "kwargs": {"mask": null}}]}, {"class_name": "Dropout", "config": {"name": "block5e_drop", "trainable": false, "dtype": "float32", "rate": 0.1619047619047619, "seed": null, "noise_shape": [null, 1, 1, 1]}, "name": "block5e_drop", "inbound_nodes": [{"args": [{"class_name": "__keras_tensor__", "config": {"shape": [null, 19, 19, 136], "dtype": "float32", "keras_history": ["block5e_project_bn", 0, 0]}}], "kwargs": {"training": false}}]}, {"class_name": "Add", "config": {"name": "block5e_add", "trainable": false, "dtype": "float32"}, "name": "block5e_add", "inbound_nodes": [{"args": [[{"class_name": "__keras_tensor__", "config": {"shape": [null, 19, 19, 136], "dtype": "float32", "keras_history": ["block5e_drop", 0, 0]}}, {"class_name": "__keras_tensor__", "config": {"shape": [null, 19, 19, 136], "dtype": "float32", "keras_history": ["block5d_add", 0, 0]}}]], "kwargs": {}}]}, {"class_name": "Conv2D", "config": {"name": "block5f_expand_conv", "trainable": false, "dtype": "float32", "filters": 816, "kernel_size": [1, 1], "strides": [1, 1], "padding": "same", "data_format": "channels_last", "dilation_rate": [1, 1], "groups": 1, "activation": "linear", "use_bias": false, "kernel_initializer": {"module": "keras.initializers", "class_name": "VarianceScaling", "config": {"scale": 2.0, "mode": "fan_out", "distribution": "truncated_normal", "seed": null}, "registered_name": null}, "bias_initializer": {"module": "keras.initializers", "class_name": "Zeros", "config": {}, "registered_name": null}, "kernel_regularizer": null, "bias_regularizer": null, "activity_regularizer": null, "kernel_constraint": null, "bias_constraint": null}, "name": "block5f_expand_conv", "inbound_nodes": [{"args": [{"class_name": "__keras_tensor__", "config": {"shape": [null, 19, 19, 136], "dtype": "float32", "keras_history": ["block5e_add", 0, 0]}}], "kwargs": {}}]}, {"class_name": "BatchNormalization", "config": {"name": "block5f_expand_bn", "trainable": false, "dtype": "float32", "axis": 3, "momentum": 0.9, "epsilon": 0.001, "center": true, "scale": true, "beta_initializer": {"module": "keras.initializers", "class_name": "Zeros", "config": {}, "registered_name": null}, "gamma_initializer": {"module": "keras.initializers", "class_name": "Ones", "config": {}, "registered_name": null}, "moving_mean_initializer": {"module": "keras.initializers", "class_name": "Zeros", "config": {}, "registered_name": null}, "moving_variance_initializer": {"module": "keras.initializers", "class_name": "Ones", "config": {}, "registered_name": null}, "beta_regularizer": null, "gamma_regularizer": null, "beta_constraint": null, "gamma_constraint": null, "synchronized": false}, "name": "block5f_expand_bn", "inbound_nodes": [{"args": [{"class_name": "__keras_tensor__", "config": {"shape": [null, 19, 19, 816], "dtype": "float32", "keras_history": ["block5f_expand_conv", 0, 0]}}], "kwargs": {"mask": null}}]}, {"class_name": "Activation", "config": {"name": "block5f_expand_activation", "trainable": false, "dtype": "float32", "activation": "silu"}, "name": "block5f_expand_activation", "inbound_nodes": [{"args": [{"class_name": "__keras_tensor__", "config": {"shape": [null, 19, 19, 816], "dtype": "float32", "keras_history": ["block5f_expand_bn", 0, 0]}}], "kwargs": {}}]}, {"class_name": "DepthwiseConv2D", "config": {"name": "block5f_dwconv2", "trainable": false, "dtype": "float32", "depth_multiplier": 1, "kernel_size": [3, 3], "strides": [1, 1], "padding": "same", "data_format": "channels_last", "dilation_rate": [1, 1], "activation": "linear", "use_bias": false, "depthwise_initializer": {"module": "keras.initializers", "class_name": "VarianceScaling", "config": {"scale": 2.0, "mode": "fan_out", "distribution": "truncated_normal", "seed": null}, "registered_name": null}, "bias_initializer": {"module": "keras.initializers", "class_name": "Zeros", "config": {}, "registered_name": null}, "depthwise_regularizer": null, "bias_regularizer": null, "activity_regularizer": null, "depthwise_constraint": null, "bias_constraint": null}, "name": "block5f_dwconv2", "inbound_nodes": [{"args": [{"class_name": "__keras_tensor__", "config": {"shape": [null, 19, 19, 816], "dtype": "float32", "keras_history": ["block5f_expand_activation", 0, 0]}}], "kwargs": {}}]}, {"class_name": "BatchNormalization", "config": {"name": "block5f_bn", "trainable": false, "dtype": "float32", "axis": 3, "momentum": 0.9, "epsilon": 0.001, "center": true, "scale": true, "beta_initializer": {"module": "keras.initializers", "class_name": "Zeros", "config": {}, "registered_name": null}, "gamma_initializer": {"module": "keras.initializers", "class_name": "Ones", "config": {}, "registered_name": null}, "moving_mean_initializer": {"module": "keras.initializers", "class_name": "Zeros", "config": {}, "registered_name": null}, "moving_variance_initializer": {"module": "keras.initializers", "class_name": "Ones", "config": {}, "registered_name": null}, "beta_regularizer": null, "gamma_regularizer": null, "beta_constraint": null, "gamma_constraint": null, "synchronized": false}, "name": "block5f_bn", "inbound_nodes": [{"args": [{"class_name": "__keras_tensor__", "config": {"shape": [null, 19, 19, 816], "dtype": "float32", "keras_history": ["block5f_dwconv2", 0, 0]}}], "kwargs": {"mask": null}}]}, {"class_name": "Activation", "config": {"name": "block5f_activation", "trainable": false, "dtype": "float32", "activation": "silu"}, "name": "block5f_activation", "inbound_nodes": [{"args": [{"class_name": "__keras_tensor__", "config": {"shape": [null, 19, 19, 816], "dtype": "float32", "keras_history": ["block5f_bn", 0, 0]}}], "kwargs": {}}]}, {"class_name": "GlobalAveragePooling2D", "config": {"name": "block5f_se_squeeze", "trainable": false, "dtype": "float32", "data_format": "channels_last", "keepdims": false}, "name": "block5f_se_squeeze", "inbound_nodes": [{"args": [{"class_name": "__keras_tensor__", "config": {"shape": [null, 19, 19, 816], "dtype": "float32", "keras_history": ["block5f_activation", 0, 0]}}], "kwargs": {}}]}, {"class_name": "Reshape", "config": {"name": "block5f_se_reshape", "trainable": false, "dtype": "float32", "target_shape": [1, 1, 816]}, "name": "block5f_se_reshap…
l, 10, 10, 1392], "dtype": "float32", "keras_history": ["block6l_activation", 0, 0]}}, {"class_name": "__keras_tensor__", "config": {"shape": [null, 1, 1, 1392], "dtype": "float32", "keras_history": ["block6l_se_expand", 0, 0]}}]], "kwargs": {}}]}, {"class_name": "Conv2D", "config": {"name": "block6l_project_conv", "trainable": false, "dtype": "float32", "filters": 232, "kernel_size": [1, 1], "strides": [1, 1], "padding": "same", "data_format": "channels_last", "dilation_rate": [1, 1], "groups": 1, "activation": "linear", "use_bias": false, "kernel_initializer": {"module": "keras.initializers", "class_name": "VarianceScaling", "config": {"scale": 2.0, "mode": "fan_out", "distribution": "truncated_normal", "seed": null}, "registered_name": null}, "bias_initializer": {"module": "keras.initializers", "class_name": "Zeros", "config": {}, "registered_name": null}, "kernel_regularizer": null, "bias_regularizer": null, "activity_regularizer": null, "kernel_constraint": null, "bias_constraint": null}, "name": "block6l_project_conv", "inbound_nodes": [{"args": [{"class_name": "__keras_tensor__", "config": {"shape": [null, 10, 10, 1392], "dtype": "float32", "keras_history": ["block6l_se_excite", 0, 0]}}], "kwargs": {}}]}, {"class_name": "BatchNormalization", "config": {"name": "block6l_project_bn", "trainable": false, "dtype": "float32", "axis": 3, "momentum": 0.9, "epsilon": 0.001, "center": true, "scale": true, "beta_initializer": {"module": "keras.initializers", "class_name": "Zeros", "config": {}, "registered_name": null}, "gamma_initializer": {"module": "keras.initializers", "class_name": "Ones", "config": {}, "registered_name": null}, "moving_mean_initializer": {"module": "keras.initializers", "class_name": "Zeros", "config": {}, "registered_name": null}, "moving_variance_initializer": {"module": "keras.initializers", "class_name": "Ones", "config": {}, "registered_name": null}, "beta_regularizer": null, "gamma_regularizer": null, "beta_constraint": null, "gamma_constraint": null, "synchronized": false}, "name": "block6l_project_bn", "inbound_nodes": [{"args": [{"class_name": "__keras_tensor__", "config": {"shape": [null, 10, 10, 232], "dtype": "float32", "keras_history": ["block6l_project_conv", 0, 0]}}], "kwargs": {"mask": null}}]}, {"class_name": "Dropout", "config": {"name": "block6l_drop", "trainable": false, "dtype": "float32", "rate": 0.29523809523809524, "seed": null, "noise_shape": [null, 1, 1, 1]}, "name": "block6l_drop", "inbound_nodes": [{"args": [{"class_name": "__keras_tensor__", "config": {"shape": [null, 10, 10, 232], "dtype": "float32", "keras_history": ["block6l_project_bn", 0, 0]}}], "kwargs": {"training": false}}]}, {"class_name": "Add", "config": {"name": "block6l_add", "trainable": false, "dtype": "float32"}, "name": "block6l_add", "inbound_nodes": [{"args": [[{"class_name": "__keras_tensor__", "config": {"shape": [null, 10, 10, 232], "dtype": "float32", "keras_history": ["block6l_drop", 0, 0]}}, {"class_name": "__keras_tensor__", "config": {"shape": [null, 10, 10, 232], "dtype": "float32", "keras_history": ["block6k_add", 0, 0]}}]], "kwargs": {}}]}, {"class_name": "Conv2D", "config": {"name": "top_conv", "trainable": false, "dtype": "float32", "filters": 1536, "kernel_size": [1, 1], "strides": [1, 1], "padding": "same", "data_format": "channels_last", "dilation_rate": [1, 1], "groups": 1, "activation": "linear", "use_bias": false, "kernel_initializer": {"module": "keras.initializers", "class_name": "VarianceScaling", "config": {"scale": 2.0, "mode": "fan_out", "distribution": "truncated_normal", "seed": null}, "registered_name": null}, "bias_initializer": {"module": "keras.initializers", "class_name": "Zeros", "config": {}, "registered_name": null}, "kernel_regularizer": null, "bias_regularizer": null, "activity_regularizer": null, "kernel_constraint": null, "bias_constraint": null}, "name": "top_conv", "inbound_nodes": [{"args": [{"class_name": "__keras_tensor__", "config": {"shape": [null, 10, 10, 232], "dtype": "float32", "keras_history": ["block6l_add", 0, 0]}}], "kwargs": {}}]}, {"class_name": "BatchNormalization", "config": {"name": "top_bn", "trainable": false, "dtype": "float32", "axis": 3, "momentum": 0.9, "epsilon": 0.001, "center": true, "scale": true, "beta_initializer": {"module": "keras.initializers", "class_name": "Zeros", "config": {}, "registered_name": null}, "gamma_initializer": {"module": "keras.initializers", "class_name": "Ones", "config": {}, "registered_name": null}, "moving_mean_initializer": {"module": "keras.initializers", "class_name": "Zeros", "config": {}, "registered_name": null}, "moving_variance_initializer": {"module": "keras.initializers", "class_name": "Ones", "config": {}, "registered_name": null}, "beta_regularizer": null, "gamma_regularizer": null, "beta_constraint": null, "gamma_constraint": null, "synchronized": false}, "name": "top_bn", "inbound_nodes": [{"args": [{"class_name": "__keras_tensor__", "config": {"shape": [null, 10, 10, 1536], "dtype": "float32", "keras_history": ["top_conv", 0, 0]}}], "kwargs": {"mask": null}}]}, {"class_name": "Activation", "config": {"name": "top_activation", "trainable": false, "dtype": "float32", "activation": "silu"}, "name": "top_activation", "inbound_nodes": [{"args": [{"class_name": "__keras_tensor__", "config": {"shape": [null, 10, 10, 1536], "dtype": "float32", "keras_history": ["top_bn", 0, 0]}}], "kwargs": {}}]}], "input_layers": [["input_layer_2", 0, 0]], "output_layers": [["top_activation", 0, 0]]}}, {"class_name": "GlobalMaxPooling2D", "config": {"name": "max_pooling", "trainable": true, "dtype": "float32", "data_format": "channels_last", "keepdims": false}}, {"class_name": "BatchNormalization", "config": {"name": "batch_norm", "trainable": true, "dtype": "float32", "axis": -1, "momentum": 0.99, "epsilon": 0.001, "center": true, "scale": true, "beta_initializer": {"module": "keras.initializers", "class_name": "Zeros", "config": {}, "registered_name": null}, "gamma_initializer": {"module": "keras.initializers", "class_name": "Ones", "config": {}, "registered_name": null}, "moving_mean_initializer": {"module": "keras.initializers", "class_name": "Zeros", "config": {}, "registered_name": null}, "moving_variance_initializer": {"module": "keras.initializers", "class_name": "Ones", "config": {}, "registered_name": null}, "beta_regularizer": null, "gamma_regularizer": null, "beta_constraint": null, "gamma_constraint": null, "synchronized": false}}, {"class_name": "Dense", "config": {"name": "dense_1", "trainable": true, "dtype": "float32", "units": 525, "activation": "softmax", "use_bias": true, "kernel_initializer": {"module": "keras.initializers", "class_name": "GlorotUniform", "config": {"seed": null}, "registered_name": null}, "bias_initializer": {"module": "keras.initializers", "class_name": "Zeros", "config": {}, "registered_name": null}, "kernel_regularizer": null, "bias_regularizer": null, "kernel_constraint": null, "bias_constraint": null}}], "build_input_shape": [null, 300, 300, 3]}}, "training_config": {"loss": "sparse_categorical_crossentropy", "loss_weights": null, "metrics": ["accuracy"], "weighted_metrics": null, "run_eagerly": false, "steps_per_execution": 1, "jit_compile": true, "optimizer_config": {"class_name": "Adam", "config": {"name": "adam", "learning_rate": 9.999999747378752e-05, "weight_decay": null, "clipnorm": null, "global_clipnorm": null, "clipvalue": null, "use_ema": false, "ema_momentum": 0.99, "ema_overwrite_frequency": null, "loss_scale_factor": null, "gradient_accumulation_steps": null, "beta_1": 0.9, "beta_2": 0.999, "epsilon": 1e-07, "amsgrad": false}}}}, "weightsManifest": [{"paths": ["group1-shard1of14.bin", "group1-shard2of14.bin", "group1-shard3of14.bin", "group1-shard4of14.bin", "group1-shard5of14.bin", "group1-shard6of14.bin", "group1-shard7of14.bin", "group1-shard8of14.bin", "group1-shard9of14.bin", "group1-shard10of14.bin", "group1-shard11of14.bin", "group1-shard12of14.bin", "group1-shard13of14.bin", "group1-shard14of14.bin"], "weights": [{"name": "sequential_1/batch_norm/gamma", "shape": [1536], "dtype": "float32"}, {"name": "sequential_1/batch_norm/beta", "shape": [1536], "dtype": "float32"}, {"name": "sequential_1/batch_norm/moving_mean", "shape": [1536], "dtype": "float32"}, {"name": "sequential_1/batch_norm/moving_variance", "shape": [1536], "dtype": "float32"}, {"name": "sequential_1/dense_1/kernel", "shape": [1536, 525], "dtype": "float32"}, {"name": "sequential_1/dense_1/bias", "shape": [525], "dtype": "float32"}, {"name": "stem_conv/kernel", "shape": [3, 3, 3, 40], "dtype": "float32"}, {"name": "stem_bn/gamma", "shape": [40], "dtype": "float32"}, {"name": "stem_bn/beta", "shape": [40], "dtype": "float32"}, {"name": "stem_bn/moving_mean", "shape": [40], "dtype": "float32"}, {"name": "stem_bn/moving_variance", "shape": [40], "dtype": "float32"}, {"name": "block1a_project_conv/kernel", "shape": [3, 3, 40, 16], "dtype": "float32"}, {"name": "block1a_project_bn/gamma", "shape": [16], "dtype": "float32"}, {"name": "block1a_project_bn/beta", "shape": [16], "dtype": "float32"}, {"name": "block1a_project_bn/moving_mean", "shape": [16], "dtype": "float32"}, {"name": "block1a_project_bn/moving_variance", "shape": [16], "dtype": "float32"}, {"name": "block1b_project_conv/kernel", "shape": [3, 3, 16, 16], "dtype": "float32"}, {"name": "block1b_project_bn/gamma", "shape": [16], "dtype": "float32"}, {"name": "block1b_project_bn/beta", "shape": [16], "dtype": "float32"}, {"name": "block1b_project_bn/moving_mean", "shape": [16], "dtype": "float32"}, {"name": "block1b_project_bn/moving_variance", "shape": [16], "dtype": "float32"}, {"name": "block2a_expand_conv/kernel", "shape": [3, 3, 16, 64], "dtype": "float32"}, {"name": "block2a_expand_bn/gamma", "shape": [64], "dtype": "float32"}, {"name": "block2a_expand_bn/beta", "shape": [64], "dtype": "float32"}, {"name": "block2a_expand_bn/moving_mean", "shape": [64], "dtype": "float32"}, {"name": "block2a_expand_bn/moving_variance", "shape": [64], "dtype": "float32"}, {"name": "block2a_project_conv/kernel", "shape": [1, 1, 64, 40], "dtype": "float32"}, {"name": "block2a_project_bn/gamma", "shape": [40], "dtype": "float32"}, {"name": "block2a_project_bn/beta", "shape": [40], "dtype": "float32"}, {"name": "block2a_project_bn/moving_mean", "shape": [40], "dtype": "float32"}, {"name": "block2a_project_bn/moving_variance", "shape": [40], "dtype": "float32"}, {"name": "block2b_expand_conv/kernel", "shape": [3, 3, 40, 160], "dtype": "float32"}, {"name": "block2b_expand_bn/gamma", "shape": [160], "dtype": "float32"}, {"name": "block2b_expand_bn/beta", "shape": [160], "dtype": "float32"}, {"name": "block2b_expand_bn/moving_mean", "shape": [160], "dtype": "float32"}, {"name": "block2b_expand_bn/moving_variance", "shape": [160], "dtype": "float32"}, {"name": "block2b_project_conv/kernel", "shape": [1, 1, 160, 40], "dtype": "float32"}, {"name": "block2b_project_bn/gamma", "shape": [40], "dtype": "float32"}, {"name": "block2b_project_bn/beta", "shape": [40], "dtype": "float32"}, {"name": "block2b_project_bn/moving_mean", "shape": [40], "dtype": "float32"}, {"name": "block2b_project_bn/moving_variance", "shape": [40], "dtype": "float32"}, {"name": "block2c_expand_conv/kernel", "shape": [3, 3, 40, 160], "dtype": "float32"}, {"name": "block2c_expand_bn/gamma", "shape": [160], "dtype": "float32"}, {"name": "block2c_expand_bn/beta", "shape": [160], "dtype": "float32"}, {"name": "block2c_expand_bn/moving_mean", "shape": [160], "dtype": "float32"}, {"name": "block2c_expand_bn/moving_variance", "shape": [160], "dtype": "float32"}, {"name": "block2c_project_conv/kernel", "shape": [1, 1, 160, 40], "dtype": "float32"}, {"name": "block2c_project_bn/gamma", "shape": [40], "dtype": "float32"}, {"name": "block2c_project_bn/beta", "shape": [40], "dtype": "float32"}, {"name": "block2c_project_bn/moving_mean", "shape": [40], "dtype": "float32"}, {"name": "block2c_project_bn/moving_variance", "shape": [40], "dtype": "float32"}, {"name": "block3a_expand_conv/kernel", "shape": [3, 3, 40, 160], "dtype": "float32"}, {"name": "block3a_expand_bn/gamma", "shape": [160], "dtype": "float32"}, {"name": "block3a_expand_bn/beta", "shape": [160], "dtype": "float32"}, {"name": "block3a_expand_bn/moving_mean", "shape": [160], "dtype": "float32"}, {"name": "block3a_expand_bn/moving_variance", "shape": [160], "dtype": "float32"}, {"name": "block3a_project_conv/kernel", "shape": [1, 1, 160, 56], "dtype": "float32"}, {"name": "block3a_project_bn/gamma", "shape": [56], "dtype": "float32"}, {"name": "block3a_project_bn/beta", "shape": [56], "dtype": "float32"}, {"name": "block3a_project_bn/moving_mean", "shape": [56], "dtype": "float32"}, {"name": "block3a_project_bn/moving_variance", "shape": [56], "dtype": "float32"}, {"name": "block3b_expand_conv/kernel", "shape": [3, 3, 56, 224], "dtype": "float32"}, {"name": "block3b_expand_bn/gamma", "shape": [224], "dtype": "float32"}, {"name": "block3b_expand_bn/beta", "shape": [224], "dtype": "float32"}, {"name": "block3b_expand_bn/moving_mean", "shape": [224], "dtype": "float32"}, {"name": "block3b_expand_bn/moving_variance", "shape": [224], "dtype": "float32"}, {"name": "block3b_project_conv/kernel", "shape": [1, 1, 224, 56], "dtype": "float32"}, {"name": "block3b_project_bn/gamma", "shape": [56], "dtype": "float32"}, {"name": "block3b_project_bn/beta", "shape": [56], "dtype": "float32"}, {"name": "block3b_project_bn/moving_mean", "shape": [56], "dtype": "float32"}, {"name": "block3b_project_bn/moving_variance", "shape": [56], "dtype": "float32"}, {"name": "block3c_expand_conv/kernel", "shape": [3, 3, 56, 224], "dtype": "float32"}, {"name": "block3c_expand_bn/gamma", "shape": [224], "dtype": "float32"}, {"name": "block3c_expand_bn/beta", "shape": [224], "dtype": "float32"}, {"name": "block3c_expand_bn/moving_mean", "shape": [224], "dtype": "float32"}, {"name": "block3c_expand_bn/moving_variance", "shape": [224], "dtype": "float32"}, {"name": "block3c_project_conv/kernel", "shape": [1, 1, 224, 56], "dtype": "float32"}, {"name": "block3c_project_bn/gamma", "shape": [56], "dtype": "float32"}, {"name": "block3c_project_bn/beta", "shape": [56], "dtype": "float32"}, {"name": "block3c_project_bn/moving_mean", "shape": [56], "dtype": "float32"}, {"name": "block3c_project_bn/moving_variance", "shape": [56], "dtype": "float32"}, {"name": "block4a_expand_conv/kernel", "shape": [1, 1, 56, 224], "dtype": "float32"}, {"name": "block4a_expand_bn/gamma", "shape": [224], "dtype": "float32"}, {"name": "block4a_expand_bn/beta", "shape": [224], "dtype": "float32"}, {"name": "block4a_expand_bn/moving_mean", "shape": [224], "dtype": "float32"}, {"name": "block4a_expand_bn/moving_variance", "shape": [224], "dtype": "float32"}, {"name": "block4a_dwconv2/kernel", "shape": [3, 3, 224, 1], "dtype": "float32"}, {"name": "block4a_bn/gamma", "shape": [224], "dtype": "float32"}, {"name": "block4a_bn/beta", "shape": [224], "dtype": "float32"}, {"name": "block4a_bn/moving_mean", "shape": [224], "dtype": "float32"}, {"name": "block4a_bn/moving_variance", "shape": [224], "dtype": "float32"}, {"name": "block4a_se_reduce/kernel", "shape": [1, 1, 224, 14], "dtype": "float32"}, {"name": "block4a_se_reduce/bias", "shape": [14], "dtype": "float32"}, {"name": "block4a_se_expand/kernel", "shape": [1, 1, 14, 224], "dtype": "float32"}, {"name": "block4a_se_expand/bias", "shape": [224], "dtype": "float32"}, {"name": "block4a_project_conv/kernel", "shape": [1, 1, 224, 112], "dtype": "float32"}, {"name": "block4a_project_bn/gamma", "shape": [112], "dtype": "float32"}, {"name": "block4a_project_bn/beta", "shape": [112], "dtype": "float32"}, {"name": "block4a_project_bn/moving_mean", "shape": [112], "dtype": "float32"}, {"name": "block4a_project_bn/moving_variance", "shape": [112], "dtype": "float32"}, {"name": "block4b_expand_conv/kernel", "shape": [1, 1, 112, 448], "dtype": "float32"}, {"name": "block4b_expand_bn/gamma", "shape": [448], "dtype": "float32"}, {"name": "block4b_expand_bn/beta", "shape": [448], "dtype": "float32"}, {"name": "block4b_expand_bn/moving_mean", "shape": [448], "dtype": "float32"}, {"name": "block4b_expand_bn/moving_variance", "shape": [448], "dtype": "float32"}, {"name": "block4b_dwconv2/kernel", "shape": [3, 3, 448, 1], "dtype": "float32"}, {"name": "block4b_bn/gamma", "shape": [448], "dtype": "float32"}, {"name": "block4b_bn/beta", "shape": [448], "dtype": "float32"}, {"name": "block4b_bn/moving_mean", "shape": [448], "dtype": "float32"}, {"name": "block4b_bn/moving_variance", "shape": [448], "dtype": "float32"}, {"name": "block4b_se_reduce/kernel", "shape": [1, 1, 448, 28], "dtype": "float32"}, {"name": "block4b_se_reduce/bias", "shape": [28], "dtype": "float32"}, {"name": "block4b_se_expand/kernel", "shape": [1, 1, 28, 448], "dtype": "float32"}, {"name": "block4b_se_expand/bias", "shape": [448], "dtype": "float32"}, {"name": "block4b_project_conv/kernel", "shape": [1, 1, 448, 112], "dtype": "float32"}, {"name": "block4b_project_bn/gamma", "shape": [112], "dtype": "float32"}, {"name": "block4b_project_bn/beta", "shape": [112], "dtype": "float32"}, {"name": "block4b_project_bn/moving_mean", "shape": [112], "dtype": "float32"}, {"name": "block4b_project_bn/moving_variance", "shape": [112], "dtype": "float32"}, {"name": "block4c_expand_conv/kernel", "shape": [1, 1, 112, 448], "dtype": "float32"}, {"name": "block4c_expand_bn/gamma", "shape": [448], "dtype": "float32"}, {"name": "block4c_expand_bn/beta", "shape": [448], "dtype": "float32"}, {"name": "block4c_expand_bn/moving_mean", "shape": [448], "dtype": "float32"}, {"name": "block4c_expand_bn/moving_variance", "shape": [448], "dtype": "float32"}, {"name": "block4c_dwconv2/kernel", "shape": [3, 3, 448, 1], "dtype": "float32"}, {"name": "block4c_bn/gamma", "shape": [448], "dtype": "float32"}, {"name": "block4c_bn/beta", "shape": [448], "dtype": "float32"}, {"name": "block4c_bn/moving_mean", "shape": [448], "dtype": "float32"}, {"name": "block4c_bn/moving_variance", "shape": [448], "dtype": "float32"}, {"name": "block4c_se_reduce/kernel", "shape": [1, 1, 448, 28], "dtype": "float32"}, {"name": "block4c_se_reduce/bias", "shape": [28], "dtype": "float32"}, {"name": "block4c_se_expand/kernel", "shape": [1, 1, 28, 448], "dtype": "float32"}, {"name": "block4c_se_expand/bias", "shape": [448], "dtype": "float32"}, {"name": "block4c_project_conv/kernel", "shape": [1, 1, 448, 112], "dtype": "float32"}, {"name": "block4c_project_bn/gamma", "shape": [112], "dtype": "float32"}, {"name": "block4c_project_bn/beta", "shape": [112], "dtype": "float32"}, {"name": "block4c_project_bn/moving_mean", "shape": [112], "dtype": "float32"}, {"name": "block4c_project_bn/moving_variance", "shape": [112], "dtype": "float32"}, {"name": "block4d_expand_conv/kernel", "shape": [1, 1, 112, 448], "dtype": "float32"}, {"name": "block4d_expand_bn/gamma", "shape": [448], "dtype": "float32"}, {"name": "block4d_expand_bn/beta", "shape": [448], "dtype": "float32"}, {"name": "block4d_expand_bn/moving_mean", "shape": [448], "dtype": "float32"}, {"name": "block4d_expand_bn/moving_variance", "shape": [448], "dtype": "float32"}, {"name": "block4d_dwconv2/kernel", "shape": [3, 3, 448, 1], "dtype": "float32"}, {"name": "block4d_bn/gamma", "shape": [448], "dtype": "float32"}, {"name": "block4d_bn/beta", "shape": [448], "dtype": "float32"}, {"name": "block4d_bn/moving_mean", "shape": [448], "dtype": "float32"}, {"name": "block4d_bn/moving_variance", "shape": [448], "dtype": "float32"}, {"name": "block4d_se_reduce/kernel", "shape": [1, 1, 448, 28], "dtype": "float32"}, {"name": "block4d_se_reduce/bias", "shape": [28], "dtype": "float32"}, {"name": "block4d_se_expand/kernel", "shape": [1, 1, 28, 448], "dtype": "float32"}, {"name": "block4d_se_expand/bias", "shape": [448], "dtype": "float32"}, {"name": "block4d_project_conv/kernel", "shape": [1, 1, 448, 112], "dtype": "float32"}, {"name": "block4d_project_bn/gamma", "shape": [112], "dtype": "float32"}, {"name": "block4d_project_bn/beta", "shape": [112], "dtype": "float32"}, {"name": "block4d_project_bn/moving_mean", "shape": [112], "dtype": "float32"}, {"name": "block4d_project_bn/moving_variance", "shape": [112], "dtype": "float32"}, {"name": "block4e_expand_conv/kernel", "shape": [1, 1, 112, 448], "dtype": "float32"}, {"name": "block4e_expand_bn/gamma", "shape": [448], "dtype": "float32"}, {"name": "block4e_expand_bn/beta", "shape": [448], "dtype": "float32"}, {"name": "block4e_expand_bn/moving_mean", "shape": [448], "dtype": "float32"}, {"name": "block4e_expand_bn/moving_variance", "shape": [448], "dtype": "float32"}, {"name": "block4e_dwconv2/kernel", "shape": [3, 3, 448, 1], "dtype": "float32"}, {"name": "block4e_bn/gamma", "shape": [448], "dtype": "float32"}, {"name": "block4e_bn/beta", "shape": [448], "dtype": "float32"}, {"name": "block4e_bn/moving_mean", "shape": [448], "dtype": "float32"}, {"name": "block4e_bn/moving_variance", "shape": [448], "dtype": "float32"}, {"name": "block4e_se_reduce/kernel", "shape": [1, 1, 448, 28], "dtype": "float32"}, {"name": "block4e_se_reduce/bias", "shape": [28], "dtype": "float32"}, {"name": "block4e_se_expand/kernel", "shape": [1, 1, 28, 448], "dtype": "float32"}, {"name": "block4e_se_expand/bias", "shape": [448], "dtype": "float32"}, {"name": "block4e_project_conv/kernel", "shape": [1, 1, 448, 112], "dtype": "float32"}, {"name": "block4e_project_bn/gamma", "shape": [112], "dtype": "float32"}, {"name": "block4e_project_bn/beta", "shape": [112], "dtype": "float32"}, {"name": "block4e_project_bn/moving_mean", "shape": [112], "dtype": "float32"}, {"name": "block4e_project_bn/moving_variance", "shape": [112], "dtype": "float32"}, {"name": "block5a_expand_conv/kernel", "shape": [1, 1, 112, 672], "dtype": "float32"}, {"name": "block5a_expand_bn/gamma", "shape": [672], "dtype": "float32"}, {"name": "block5a_expand_bn/beta", "shape": [672], "dtype": "float32"}, {"name": "block5a_expand_bn/moving_mean", "shape": [672], "dtype": "float32"}, {"name": "block5a_expand_bn/moving_variance", "shape": [672], "dtype": "float32"}, {"name": "block5a_dwconv2/kernel", "shape": [3, 3, 672, 1], "dtype": "float32"}, {"name": "block5a_bn/gamma", "shape": [672], "dtype": "float32"}, {"name": "block5a_bn/beta", "shape": [672], "dtype": "float32"}, {"name": "block5a_bn/moving_mean", "shape": [672], "dtype": "float32"}, {"name": "block5a_bn/moving_variance", "shape": [672], "dtype": "float32"}, {"name": "block5a_se_reduce/kernel", "shape": [1, 1, 672, 28], "dtype": "float32"}, {"name": "block5a_se_reduce/bias", "shape": [28], "dtype": "float32"}, {"name": "block5a_se_expand/kernel", "shape": [1, 1, 28, 672], "dtype": "float32"}, {"name": "block5a_se_expand/bias", "shape": [672], "dtype": "float32"}, {"name": "block5a_project_conv/kernel", "shape": [1, 1, 672, 136], "dtype": "float32"}, {"name": "block5a_project_bn/gamma", "shape": [136], "dtype": "float32"}, {"name": "block5a_project_bn/beta", "shape": [136], "dtype": "float32"}, {"name": "block5a_project_bn/moving_mean", "shape": [136], "dtype": "float32"}, {"name": "block5a_project_bn/moving_variance", "shape": [136], "dtype": "float32"}, {"name": "block5b_expand_conv/kernel", "shape": [1, 1, 136, 816], "dtype": "float32"}, {"name": "block5b_expand_bn/gamma", "shape": [816], "dtype": "float32"}, {"name": "block5b_expand_bn/beta", "shape": [816], "dtype": "float32"}, {"name": "block5b_expand_bn/moving_mean", "shape": [816], "dtype": "float32"}, {"name": "block5b_expand_bn/moving_variance", "shape": [816], "dtype": "float32"}, {"name": "block5b_dwconv2/kernel", "shape": [3, 3, 816, 1], "dtype": "float32"}, {"name": "block5b_bn/gamma", "shape": [816], "dtype": "float32"}, {"name": "block5b_bn/beta", "shape": [816], "dtype": "float32"}, {"name": "block5b_bn/moving_mean", "shape": [816], "dtype": "float32"}, {"name": "block5b_bn/moving_variance", "shape": [816], "dtype": "float32"}, {"name": "block5b_se_reduce/kernel", "shape": [1, 1, 816, 34], "dtype": "float32"}, {"name": "block5b_se_reduce/bias", "shape": [34], "dtype": "float32"}, {"name": "block5b_se_expand/kernel", "shape": [1, 1, 34, 816], "dtype": "float32"}, {"name": "block5b_se_expand/bias", "shape": [816], "dtype": "float32"}, {"name": "block5b_project_conv/kernel", "shape": [1, 1, 816, 136], "dtype": "float32"}, {"name": "block5b_project_bn/gamma", "shape": [136], "dtype": "float32"}, {"name": "block5b_project_bn/beta", "shape": [136], "dtype": "float32"}, {"name": "block5b_project_bn/moving_mean", "shape": [136], "dtype": "float32"}, {"name": "block5b_project_bn/moving_variance", "shape": [136], "dtype": "float32"}, {"name": "block5c_expand_conv/kernel", "shape": [1, 1, 136, 816], "dtype": "float32"}, {"name": "block5c_expand_bn/gamma", "shape": [816], "dtype": "float32"}, {"name": "block5c_expand_bn/beta", "shape": [816], "dtype": "float32"}, {"name": "block5c_expand_bn/moving_mean", "shape": [816], "dtype": "float32"}, {"name": "block5c_expand_bn/moving_variance", "shape": [816], "dtype": "float32"}, {"name": "block5c_dwconv2/kernel", "shape": [3, 3, 816, 1], "dtype": "float32"}, {"name": "block5c_bn/gamma", "shape": [816], "dtype": "float32"}, {"name": "block5c_bn/beta", "shape": [816], "dtype": "float32"}, {"name": "block5c_bn/moving_mean", "shape": [816], "dtype": "float32"}, {"name": "block5c_bn/moving_variance", "shape": [816], "dtype": "float32"}, {"name": "block5c_se_reduce/kernel", "shape": [1, 1, 816, 34], "dtype": "float32"}, {"name": "block5c_se_reduce/bias", "shape": [34], "dtype": "float32"}, {"name": "block5c_se_expand/kernel", "shape": [1, 1, 34, 816], "dtype": "float32"}, {"name": "block5c_se_expand/bias", "shape": [816], "dtype": "float32"}, {"name": "block5c_project_conv/kernel", "shape": [1, 1, 816, 136], "dtype": "float32"}, {"name": "block5c_project_bn/gamma", "shape": [136], "dtype": "float32"}, {"name": "block5c_project_bn/beta", "shape": [136], "dtype": "float32"}, {"name": "block5c_project_bn/moving_mean", "shape": [136], "dtype": "float32"}, {"name": "block5c_project_bn/moving_variance", "shape": [136], "dtype": "float32"}, {"name": "block5d_expand_conv/kernel", "shape": [1, 1, 136, 816], "dtype": "float32"}, {"name": "block5d_expand_bn/gamma", "shape": [816], "dtype": "float32"}, {"name": "block5d_expand_bn/beta", "shape": [816], "dtype": "float32"}, {"name": "block5d_expand_bn/moving_mean", "shape": [816], "dtype": "float32"}, {"name": "block5d_expand_bn/moving_variance", "shape": [816], "dtype": "float32"}, {"name": "block5d_dwconv2/kernel", "shape": [3, 3, 816, 1], "dtype": "float32"}, {"name": "block5d_bn/gamma", "shape": [816], "dtype": "float32"}, {"name": "block5d_bn/beta", "shape": [816], "dtype": "float32"}, {"name": "block5d_bn/moving_mean", "shape": [816], "dtype": "float32"}, {"name": "block5d_bn/moving_variance", "shape": [816], "dtype": "float32"}, {"name": "block5d_se_reduce/kernel", "shape": [1, 1, 816, 34], "dtype": "float32"}, {"name": "block5d_se_reduce/bias", "shape": [34], "dtype": "float32"}, {"name": "block5d_se_expand/kernel", "shape": [1, 1, 34, 816], "dtype": "float32"}, {"name": "block5d_se_expand/bias", "shape": [816], "dtype": "float32"}, {"name": "block5d_project_conv/kernel", "shape": [1, 1, 816, 136], "dtype": "float32"}, {"name": "block5d_project_bn/gamma", "shape": [136], "dtype": "float32"}, {"name": "block5d_project_bn/beta", "shape": [136], "dtype": "float32"}, {"name": "block5d_project_bn/moving_mean", "shape": [136], "dtype": "float32"}, {"name": "block5d_project_bn/moving_variance", "shape": [136], "dtype": "float32"}, {"name": "block5e_expand_conv/kernel", "shape": [1, 1, 136, 816], "dtype": "float32"}, {"name": "block5e_expand_bn/gamma", "shape": [816], "dtype": "float32"}, {"name": "block5e_expand_bn/beta", "shape": [816], "dtype": "float32"}, {"name": "block5e_expand_bn/moving_mean", "shape": [816], "dtype": "float32"}, {"name": "block5e_expand_bn/moving_variance", "shape": [816], "dtype": "float32"}, {"name": "block5e_dwconv2/kernel", "shape": [3, 3, 816, 1], "dtype": "float32"}, {"name": "block5e_bn/gamma", "shape": [816], "dtype": "float32"}, {"name": "block5e_bn/beta", "shape": [816], "dtype": "float32"}, {"name": "block5e_bn/moving_mean", "shape": [816], "dtype": "float32"}, {"name": "block5e_bn/moving_variance", "shape": [816], "dtype": "float32"}, {"name": "block5e_se_reduce/kernel", "shape": [1, 1, 816, 34], "dtype": "float32"}, {"name": "block5e_se_reduce/bias", "shape": [34], "dtype": "float32"}, {"name": "block5e_se_expand/kernel", "shape": [1, 1, 34, 816], "dtype": "float32"}, {"name": "block5e_se_expand/bias", "shape": [816], "dtype": "float32"}, {"name": "block5e_project_conv/kernel", "shape": [1, 1, 816, 136], "dtype": "float32"}, {"name": "block5e_project_bn/gamma", "shape": [136], "dtype": "float32"}, {"name": "block5e_project_bn/beta", "shape": [136], "dtype": "float32"}, {"name": "block5e_project_bn/moving_mean", "shape": [136], "dtype": "float32"}, {"name": "block5e_project_bn/moving_variance", "shape": [136], "dtype": "float32"}, {"name": "block5f_expand_conv/kernel", "shape": [1, 1, 136, 816], "dtype": "float32"}, {"name": "block5f_expand_bn/gamma", "shape": [816], "dtype": "float32"}, {"name": "block5f_expand_bn/beta", "shape": [816], "dtype": "float32"}, {"name": "block5f_expand_bn/moving_mean", "shape": [816], "dtype": "float32"}, {"name": "block5f_expand_bn/moving_variance", "shape": [816], "dtype": "float32"}, {"name": "block5f_dwconv2/kernel", "shape": [3, 3, 816, 1], "dtype": "float32"}, {"name": "block5f_bn/gamma", "shape": [816], "dtype": "float32"}, {"name": "block5f_bn/beta", "shape": [816], "dtype": "float32"}, {"name": "block5f_bn/moving_mean", "shape": [816], "dtype": "float32"}, {"name": "block5f_bn/moving_variance", "shape": [816], "dtype": "float32"}, {"name": "block5f_se_reduce/kernel", "shape": [1, 1, 816, 34], "dtype": "float32"}, {"name": "block5f_se_reduce/bias", "shape": [34], "dtype": "float32"}, {"name": "block5f_se_expand/kernel", "shape": [1, 1, 34, 816], "dtype": "float32"}, {"name": "block5f_se_expand/bias", "shape": [816], "dtype": "float32"}, {"name": "block5f_project_conv/kernel", "shape": [1, 1, 816, 136], "dtype": "float32"}, {"name": "block5f_project_bn/gamma", "shape": [136], "dtype": "float32"}, {"name": "block5f_project_bn/beta", "shape": [136], "dtype": "float32"}, {"name": "block5f_project_bn/moving_mean", "shape": [136], "dtype": "float32"}, {"name": "block5f_project_bn/moving_variance", "shape": [136], "dtype": "float32"}, {"name": "block5g_expand_conv/kernel", "shape": [1, 1, 136, 816], "dtype": "float32"}, {"name": "block5g_expand_bn/gamma", "shape": [816], "dtype": "float32"}, {"name": "block5g_expand_bn/beta", "shape": [816], "dtype": "float32"}, {"name": "block5g_expand_bn/moving_mean", "shape": [816], "dtype": "float32"}, {"name": "block5g_expand_bn/moving_variance", "shape": [816], "dtype": "float32"}, {"name": "block5g_dwconv2/kernel", "shape": [3, 3, 816, 1], "dtype": "float32"}, {"name": "block5g_bn/gamma", "shape": [816], "dtype": "float32"}, {"name": "block5g_bn/beta", "shape": [816], "dtype": "float32"}, {"name": "block5g_bn/moving_mean", "shape": [816], "dtype": "float32"}, {"name": "block5g_bn/moving_variance", "shape": [816], "dtype": "float32"}, {"name": "block5g_se_reduce/kernel", "shape": [1, 1, 816, 34], "dtype": "float32"}, {"name": "block5g_se_reduce/bias", "shape": [34], "dtype": "float32"}, {"name": "block5g_se_expand/kernel", "shape": [1, 1, 34, 816], "dtype": "float32"}, {"name": "block5g_se_expand/bias", "shape": [816], "dtype": "float32"}, {"name": "block5g_project_conv/kernel", "shape": [1, 1, 816, 136], "dtype": "float32"}, {"name": "block5g_project_bn/gamma", "shape": [136], "dtype": "float32"}, {"name": "block5g_project_bn/beta", "shape": [136], "dtype": "float32"}, {"name": "block5g_project_bn/moving_mean", "shape": [136], "dtype": "float32"}, {"name": "block5g_project_bn/moving_variance", "shape": [136], "dtype": "float32"}, {"name": "block6a_expand_conv/kernel", "shape": [1, 1, 136, 816], "dtype": "float32"}, {"name": "block6a_expand_bn/gamma", "shape": [816], "dtype": "float32"}, {"name": "block6a_expand_bn/beta", "shape": [816], "dtype": "float32"}, {"name": "block6a_expand_bn/moving_mean", "shape": [816], "dtype": "float32"}, {"name": "block6a_expand_bn/moving_variance", "shape": [816], "dtype": "float32"}, {"name": "block6a_dwconv2/kernel", "shape": [3, 3, 816, 1], "dtype": "float32"}, {"name": "block6a_bn/gamma", "shape": [816], "dtype": "float32"}, {"name": "block6a_bn/beta", "shape": [816], "dtype": "float32"}, {"name": "block6a_bn/moving_mean", "shape": [816], "dtype": "float32"}, {"name": "block6a_bn/moving_variance", "shape": [816], "dtype": "float32"}, {"name": "block6a_se_reduce/kernel", "shape": [1, 1, 816, 34], "dtype": "float32"}, {"name": "block6a_se_reduce/bias", "shape": [34], "dtype": "float32"}, {"name": "block6a_se_expand/kernel", "shape": [1, 1, 34, 816], "dtype": "float32"}, {"name": "block6a_se_expand/bias", "shape": [816], "dtype": "float32"}, {"name": "block6a_project_conv/kernel", "shape": [1, 1, 816, 232], "dtype": "float32"}, {"name": "block6a_project_bn/gamma", "shape": [232], "dtype": "float32"}, {"name": "block6a_project_bn/beta", "shape": [232], "dtype": "float32"}, {"name": "block6a_project_bn/moving_mean", "shape": [232], "dtype": "float32"}, {"name": "block6a_project_bn/moving_variance", "shape": [232], "dtype": "float32"}, {"name": "block6b_expand_conv/kernel", "shape": [1, 1, 232, 1392], "dtype": "float32"}, {"name": "block6b_expand_bn/gamma", "shape": [1392], "dtype": "float32"}, {"name": "block6b_expand_bn/beta", "shape": [1392], "dtype": "float32"}, {"name": "block6b_expand_bn/moving_mean", "shape": [1392], "dtype": "float32"}, {"name": "block6b_expand_bn/moving_variance", "shape": [1392], "dtype": "float32"}, {"name": "block6b_dwconv2/kernel", "shape": [3, 3, 1392, 1], "dtype": "float32"}, {"name": "block6b_bn/gamma", "shape": [1392], "dtype": "float32"}, {"name": "block6b_bn/beta", "shape": [1392], "dtype": "float32"}, {"name": "block6b_bn/moving_mean", "shape": [1392], "dtype": "float32"}, {"name": "block6b_bn/moving_variance", "shape": [1392], "dtype": "float32"}, {"name": "block6b_se_reduce/kernel", "shape": [1, 1, 1392, 58], "dtype": "float32"}, {"name": "block6b_se_reduce/bias", "shape": [58], "dtype": "float32"}, {"name": "block6b_se_expand/kernel", "shape": [1, 1, 58, 1392], "dtype": "float32"}, {"name": "block6b_se_expand/bias", "shape": [1392], "dtype": "float32"}, {"name": "block6b_project_conv/kernel", "shape": [1, 1, 1392, 232], "dtype": "float32"}, {"name": "block6b_project_bn/gamma", "shape": [232], "dtype": "float32"}, {"name": "block6b_project_bn/beta", "shape": [232], "dtype": "float32"}, {"name": "block6b_project_bn/moving_mean", "shape": [232], "dtype": "float32"}, {"name": "block6b_project_bn/moving_variance", "shape": [232], "dtype": "float32"}, {"name": "block6c_expand_conv/kernel", "shape": [1, 1, 232, 1392], "dtype": "float32"}, {"name": "block6c_expand_bn/gamma", "shape": [1392], "dtype": "float32"}, {"name": "block6c_expand_bn/beta", "shape": [1392], "dtype": "float32"}, {"name": "block6c_expand_bn/moving_mean", "shape": [1392], "dtype": "float32"}, {"name": "block6c_expand_bn/moving_variance", "shape": [1392], "dtype": "float32"}, {"name": "block6c_dwconv2/kernel", "shape": [3, 3, 1392, 1], "dtype": "float32"}, {"name": "block6c_bn/gamma", "shape": [1392], "dtype": "float32"}, {"name": "block6c_bn/beta", "shape": [1392], "dtype": "float32"}, {"name": "block6c_bn/moving_mean", "shape": [1392], "dtype": "float32"}, {"name": "block6c_bn/moving_variance", "shape": [1392], "dtype": "float32"}, {"name": "block6c_se_reduce/kernel", "shape": [1, 1, 1392, 58], "dtype": "float32"}, {"name": "block6c_se_reduce/bias", "shape": [58], "dtype": "float32"}, {"name": "block6c_se_expand/kernel", "shape": [1, 1, 58, 1392], "dtype": "float32"}, {"name": "block6c_se_expand/bias", "shape": [1392], "dtype": "float32"}, {"name": "block6c_project_conv/kernel", "shape": [1, 1, 1392, 232], "dtype": "float32"}, {"name": "block6c_project_bn/gamma", "shape": [232], "dtype": "float32"}, {"name": "block6c_project_bn/beta", "shape": [232], "dtype": "float32"}, {"name": "block6c_project_bn/moving_mean", "shape": [232], "dtype": "float32"}, {"name": "block6c_project_bn/moving_variance", "shape": [232], "dtype": "float32"}, {"name": "block6d_expand_conv/kernel", "shape": [1, 1, 232, 1392], "dtype": "float32"}, {"name": "block6d_expand_bn/gamma", "shape": [1392], "dtype": "float32"}, {"name": "block6d_expand_bn/beta", "shape": [1392], "dtype": "float32"}, {"name": "block6d_expand_bn/moving_mean", "shape": [1392], "dtype": "float32"}, {"name": "block6d_expand_bn/moving_variance", "shape": [1392], "dtype": "float32"}, {"name": "block6d_dwconv2/kernel", "shape": [3, 3, 1392, 1], "dtype": "float32"}, {"name": "block6d_bn/gamma", "shape": [1392], "dtype": "float32"}, {"name": "block6d_bn/beta", "shape": [1392], "dtype": "float32"}, {"name": "block6d_bn/moving_mean", "shape": [1392], "dtype": "float32"}, {"name": "block6d_bn/moving_variance", "shape": [1392], "dtype": "float32"}, {"name": "block6d_se_reduce/kernel", "shape": [1, 1, 1392, 58], "dtype": "float32"}, {"name": "block6d_se_reduce/bias", "shape": [58], "dtype": "float32"}, {"name": "block6d_se_expand/kernel", "shape": [1, 1, 58, 1392], "dtype": "float32"}, {"name": "block6d_se_expand/bias", "shape": [1392], "dtype": "float32"}, {"name": "block6d_project_conv/kernel", "shape": [1, 1, 1392, 232], "dtype": "float32"}, {"name": "block6d_project_bn/gamma", "shape": [232], "dtype": "float32"}, {"name": "block6d_project_bn/beta", "shape": [232], "dtype": "float32"}, {"name": "block6d_project_bn/moving_mean", "shape": [232], "dtype": "float32"}, {"name": "block6d_project_bn/moving_variance", "shape": [232], "dtype": "float32"}, {"name": "block6e_expand_conv/kernel", "shape": [1, 1, 232, 1392], "dtype": "float32"}, {"name": "block6e_expand_bn/gamma", "shape": [1392], "dtype": "float32"}, {"name": "block6e_expand_bn/beta", "shape": [1392], "dtype": "float32"}, {"name": "block6e_expand_bn/moving_mean", "shape": [1392], "dtype": "float32"}, {"name": "block6e_expand_bn/moving_variance", "shape": [1392], "dtype": "float32"}, {"name": "block6e_dwconv2/kernel", "shape": [3, 3, 1392, 1], "dtype": "float32"}, {"name": "block6e_bn/gamma", "shape": [1392], "dtype": "float32"}, {"name": "block6e_bn/beta", "shape": [1392], "dtype": "float32"}, {"name": "block6e_bn/moving_mean", "shape": [1392], "dtype": "float32"}, {"name": "block6e_bn/moving_variance", "shape": [1392], "dtype": "float32"}, {"name": "block6e_se_reduce/kernel", "shape": [1, 1, 1392, 58], "dtype": "float32"}, {"name": "block6e_se_reduce/bias", "shape": [58], "dtype": "float32"}, {"name": "block6e_se_expand/kernel", "shape": [1, 1, 58, 1392], "dtype": "float32"}, {"name": "block6e_se_expand/bias", "shape": [1392], "dtype": "float32"}, {"name": "block6e_project_conv/kernel", "shape": [1, 1, 1392, 232], "dtype": "float32"}, {"name": "block6e_project_bn/gamma", "shape": [232], "dtype": "float32"}, {"name": "block6e_project_bn/beta", "shape": [232], "dtype": "float32"}, {"name": "block6e_project_bn/moving_mean", "shape": [232], "dtype": "float32"}, {"name": "block6e_project_bn/moving_variance", "shape": [232], "dtype": "float32"}, {"name": "block6f_expand_conv/kernel", "shape": [1, 1, 232, 1392], "dtype": "float32"}, {"name": "block6f_expand_bn/gamma", "shape": [1392], "dtype": "float32"}, {"name": "block6f_expand_bn/beta", "shape": [1392], "dtype": "float32"}, {"name": "block6f_expand_bn/moving_mean", "shape": [1392], "dtype": "float32"}, {"name": "block6f_expand_bn/moving_variance", "shape": [1392], "dtype": "float32"}, {"name": "block6f_dwconv2/kernel", "shape": [3, 3, 1392, 1], "dtype": "float32"}, {"name": "block6f_bn/gamma", "shape": [1392], "dtype": "float32"}, {"name": "block6f_bn/beta", "shape": [1392], "dtype": "float32"}, {"name": "block6f_bn/moving_mean", "shape": [1392], "dtype": "float32"}, {"name": "block6f_bn/moving_variance", "shape": [1392], "dtype": "float32"}, {"name": "block6f_se_reduce/kernel", "shape": [1, 1, 1392, 58], "dtype": "float32"}, {"name": "block6f_se_reduce/bias", "shape": [58], "dtype": "float32"}, {"name": "block6f_se_expand/kernel", "shape": [1, 1, 58, 1392], "dtype": "float32"}, {"name": "block6f_se_expand/bias", "shape": [1392], "dtype": "float32"}, {"name": "block6f_project_conv/kernel", "shape": [1, 1, 1392, 232], "dtype": "float32"}, {"name": "block6f_project_bn/gamma", "shape": [232], "dtype": "float32"}, {"name": "block6f_project_bn/beta", "shape": [232], "dtype": "float32"}, {"name": "block6f_project_bn/moving_mean", "shape": [232], "dtype": "float32"}, {"name": "block6f_project_bn/moving_variance", "shape": [232], "dtype": "float32"}, {"name": "block6g_expand_conv/kernel", "shape": [1, 1, 232, 1392], "dtype": "float32"}, {"name": "block6g_expand_bn/gamma", "shape": [1392], "dtype": "float32"}, {"name": "block6g_expand_bn/beta", "shape": [1392], "dtype": "float32"}, {"name": "block6g_expand_bn/moving_mean", "shape": [1392], "dtype": "float32"}, {"name": "block6g_expand_bn/moving_variance", "shape": [1392], "dtype": "float32"}, {"name": "block6g_dwconv2/kernel", "shape": [3, 3, 1392, 1], "dtype": "float32"}, {"name": "block6g_bn/gamma", "shape": [1392], "dtype": "float32"}, {"name": "block6g_bn/beta", "shape": [1392], "dtype": "float32"}, {"name": "block6g_bn/moving_mean", "shape": [1392], "dtype": "float32"}, {"name": "block6g_bn/moving_variance", "shape": [1392], "dtype": "float32"}, {"name": "block6g_se_reduce/kernel", "shape": [1, 1, 1392, 58], "dtype": "float32"}, {"name": "block6g_se_reduce/bias", "shape": [58], "dtype": "float32"}, {"name": "block6g_se_expand/kernel", "shape": [1, 1, 58, 1392], "dtype": "float32"}, {"name": "block6g_se_expand/bias", "shape": [1392], "dtype": "float32"}, {"name": "block6g_project_conv/kernel", "shape": [1, 1, 1392, 232], "dtype": "float32"}, {"name": "block6g_project_bn/gamma", "shape": [232], "dtype": "float32"}, {"name": "block6g_project_bn/beta", "shape": [232], "dtype": "float32"}, {"name": "block6g_project_bn/moving_mean", "shape": [232], "dtype": "float32"}, {"name": "block6g_project_bn/moving_variance", "shape": [232], "dtype": "float32"}, {"name": "block6h_expand_conv/kernel", "shape": [1, 1, 232, 1392], "dtype": "float32"}, {"name": "block6h_expand_bn/gamma", "shape": [1392], "dtype": "float32"}, {"name": "block6h_expand_bn/beta", "shape": [1392], "dtype": "float32"}, {"name": "block6h_expand_bn/moving_mean", "shape": [1392], "dtype": "float32"}, {"name": "block6h_expand_bn/moving_variance", "shape": [1392], "dtype": "float32"}, {"name": "block6h_dwconv2/kernel", "shape": [3, 3, 1392, 1], "dtype": "float32"}, {"name": "block6h_bn/gamma", "shape": [1392], "dtype": "float32"}, {"name": "block6h_bn/beta", "shape": [1392], "dtype": "float32"}, {"name": "block6h_bn/moving_mean", "shape": [1392], "dtype": "float32"}, {"name": "block6h_bn/moving_variance", "shape": [1392], "dtype": "float32"}, {"name": "block6h_se_reduce/kernel", "shape": [1, 1, 1392, 58], "dtype": "float32"}, {"name": "block6h_se_reduce/bias", "shape": [58], "dtype": "float32"}, {"name": "block6h_se_expand/kernel", "shape": [1, 1, 58, 1392], "dtype": "float32"}, {"name": "block6h_se_expand/bias", "shape": [1392], "dtype": "float32"}, {"name": "block6h_project_conv/kernel", "shape": [1, 1, 1392, 232], "dtype": "float32"}, {"name": "block6h_project_bn/gamma", "shape": [232], "dtype": "float32"}, {"name": "block6h_project_bn/beta", "shape": [232], "dtype": "float32"}, {"name": "block6h_project_bn/moving_mean", "shape": [232], "dtype": "float32"}, {"name": "block6h_project_bn/moving_variance", "shape": [232], "dtype": "float32"}, {"name": "block6i_expand_conv/kernel", "shape": [1, 1, 232, 1392], "dtype": "float32"}, {"name": "block6i_expand_bn/gamma", "shape": [1392], "dtype": "float32"}, {"name": "block6i_expand_bn/beta", "shape": [1392], "dtype": "float32"}, {"name": "block6i_expand_bn/moving_mean", "shape": [1392], "dtype": "float32"}, {"name": "block6i_expand_bn/moving_variance", "shape": [1392], "dtype": "float32"}, {"name": "block6i_dwconv2/kernel", "shape": [3, 3, 1392, 1], "dtype": "float32"}, {"name": "block6i_bn/gamma", "shape": [1392], "dtype": "float32"}, {"name": "block6i_bn/beta", "shape": [1392], "dtype": "float32"}, {"name": "block6i_bn/moving_mean", "shape": [1392], "dtype": "float32"}, {"name": "block6i_bn/moving_variance", "shape": [1392], "dtype": "float32"}, {"name": "block6i_se_reduce/kernel", "shape": [1, 1, 1392, 58], "dtype": "float32"}, {"name": "block6i_se_reduce/bias", "shape": [58], "dtype": "float32"}, {"name": "block6i_se_expand/kernel", "shape": [1, 1, 58, 1392], "dtype": "float32"}, {"name": "block6i_se_expand/bias", "shape": [1392], "dtype": "float32"}, {"name": "block6i_project_conv/kernel", "shape": [1, 1, 1392, 232], "dtype": "float32"}, {"name": "block6i_project_bn/gamma", "shape": [232], "dtype": "float32"}, {"name": "block6i_project_bn/beta", "shape": [232], "dtype": "float32"}, {"name": "block6i_project_bn/moving_mean", "shape": [232], "dtype": "float32"}, {"name": "block6i_project_bn/moving_variance", "shape": [232], "dtype": "float32"}, {"name": "block6j_expand_conv/kernel", "shape": [1, 1, 232, 1392], "dtype": "float32"}, {"name": "block6j_expand_bn/gamma", "shape": [1392], "dtype": "float32"}, {"name": "block6j_expand_bn/beta", "shape": [1392], "dtype": "float32"}, {"name": "block6j_expand_bn/moving_mean", "shape": [1392], "dtype": "float32"}, {"name": "block6j_expand_bn/moving_variance", "shape": [1392], "dtype": "float32"}, {"name": "block6j_dwconv2/kernel", "shape": [3, 3, 1392, 1], "dtype": "float32"}, {"name": "block6j_bn/gamma", "shape": [1392], "dtype": "float32"}, {"name": "block6j_bn/beta", "shape": [1392], "dtype": "float32"}, {"name": "block6j_bn/moving_mean", "shape": [1392], "dtype": "float32"}, {"name": "block6j_bn/moving_variance", "shape": [1392], "dtype": "float32"}, {"name": "block6j_se_reduce/kernel", "shape": [1, 1, 1392, 58], "dtype": "float32"}, {"name": "block6j_se_reduce/bias", "shape": [58], "dtype": "float32"}, {"name": "block6j_se_expand/kernel", "shape": [1, 1, 58, 1392], "dtype": "float32"}, {"name": "block6j_se_expand/bias", "shape": [1392], "dtype": "float32"}, {"name": "block6j_project_conv/kernel", "shape": [1, 1, 1392, 232], "dtype": "float32"}, {"name": "block6j_project_bn/gamma", "shape": [232], "dtype": "float32"}, {"name": "block6j_project_bn/beta", "shape": [232], "dtype": "float32"}, {"name": "block6j_project_bn/moving_mean", "shape": [232], "dtype": "float32"}, {"name": "block6j_project_bn/moving_variance", "shape": [232], "dtype": "float32"}, {"name": "block6k_expand_conv/kernel", "shape": [1, 1, 232, 1392], "dtype": "float32"}, {"name": "block6k_expand_bn/gamma", "shape": [1392], "dtype": "float32"}, {"name": "block6k_expand_bn/beta", "shape": [1392], "dtype": "float32"}, {"name": "block6k_expand_bn/moving_mean", "shape": [1392], "dtype": "float32"}, {"name": "block6k_expand_bn/moving_variance", "shape": [1392], "dtype": "float32"}, {"name": "block6k_dwconv2/kernel", "shape": [3, 3, 1392, 1], "dtype": "float32"}, {"name": "block6k_bn/gamma", "shape": [1392], "dtype": "float32"}, {"name": "block6k_bn/beta", "shape": [1392], "dtype": "float32"}, {"name": "block6k_bn/moving_mean", "shape": [1392], "dtype": "float32"}, {"name": "block6k_bn/moving_variance", "shape": [1392], "dtype": "float32"}, {"name": "block6k_se_reduce/kernel", "shape": [1, 1, 1392, 58], "dtype": "float32"}, {"name": "block6k_se_reduce/bias", "shape": [58], "dtype": "float32"}, {"name": "block6k_se_expand/kernel", "shape": [1, 1, 58, 1392], "dtype": "float32"}, {"name": "block6k_se_expand/bias", "shape": [1392], "dtype": "float32"}, {"name": "block6k_project_conv/kernel", "shape": [1, 1, 1392, 232], "dtype": "float32"}, {"name": "block6k_project_bn/gamma", "shape": [232], "dtype": "float32"}, {"name": "block6k_project_bn/beta", "shape": [232], "dtype": "float32"}, {"name": "block6k_project_bn/moving_mean", "shape": [232], "dtype": "float32"}, {"name": "block6k_project_bn/moving_variance", "shape": [232], "dtype": "float32"}, {"name": "block6l_expand_conv/kernel", "shape": [1, 1, 232, 1392], "dtype": "float32"}, {"name": "block6l_expand_bn/gamma", "shape": [1392], "dtype": "float32"}, {"name": "block6l_expand_bn/beta", "shape": [1392], "dtype": "float32"}, {"name": "block6l_expand_bn/moving_mean", "shape": [1392], "dtype": "float32"}, {"name": "block6l_expand_bn/moving_variance", "shape": [1392], "dtype": "float32"}, {"name": "block6l_dwconv2/kernel", "shape": [3, 3, 1392, 1], "dtype": "float32"}, {"name": "block6l_bn/gamma", "shape": [1392], "dtype": "float32"}, {"name": "block6l_bn/beta", "shape": [1392], "dtype": "float32"}, {"name": "block6l_bn/moving_mean", "shape": [1392], "dtype": "float32"}, {"name": "block6l_bn/moving_variance", "shape": [1392], "dtype": "float32"}, {"name": "block6l_se_reduce/kernel", "shape": [1, 1, 1392, 58], "dtype": "float32"}, {"name": "block6l_se_reduce/bias", "shape": [58], "dtype": "float32"}, {"name": "block6l_se_expand/kernel", "shape": [1, 1, 58, 1392], "dtype": "float32"}, {"name": "block6l_se_expand/bias", "shape": [1392], "dtype": "float32"}, {"name": "block6l_project_conv/kernel", "shape": [1, 1, 1392, 232], "dtype": "float32"}, {"name": "block6l_project_bn/gamma", "shape": [232], "dtype": "float32"}, {"name": "block6l_project_bn/beta", "shape": [232], "dtype": "float32"}, {"name": "block6l_project_bn/moving_mean", "shape": [232], "dtype": "float32"}, {"name": "block6l_project_bn/moving_variance", "shape": [232], "dtype": "float32"}, {"name": "top_conv/kernel", "shape": [1, 1, 232, 1536], "dtype": "float32"}, {"name": "top_bn/gamma", "shape": [1536], "dtype": "float32"}, {"name": "top_bn/beta", "shape": [1536], "dtype": "float32"}, {"name": "top_bn/moving_mean", "shape": [1536], "dtype": "float32"}, {"name": "top_bn/moving_variance", "shape": [1536], "dtype": "float32"}]}]}